node {
  name: "Placeholder"
  op: "Placeholder"
  attr {
    key: "dtype"
    value {
      type: DT_STRING
    }
  }
  attr {
    key: "shape"
    value {
      shape {
      }
    }
  }
}
node {
  name: "ReadFile"
  op: "ReadFile"
  input: "Placeholder"
}
node {
  name: "DecodeWav"
  op: "DecodeWav"
  input: "ReadFile"
  attr {
    key: "desired_channels"
    value {
      i: 1
    }
  }
  attr {
    key: "desired_samples"
    value {
      i: 16000
    }
  }
}
node {
  name: "Placeholder_1"
  op: "Placeholder"
  attr {
    key: "dtype"
    value {
      type: DT_FLOAT
    }
  }
  attr {
    key: "shape"
    value {
      shape {
      }
    }
  }
}
node {
  name: "Mul"
  op: "Mul"
  input: "DecodeWav"
  input: "Placeholder_1"
  attr {
    key: "T"
    value {
      type: DT_FLOAT
    }
  }
}
node {
  name: "Placeholder_2"
  op: "Placeholder"
  attr {
    key: "dtype"
    value {
      type: DT_INT32
    }
  }
  attr {
    key: "shape"
    value {
      shape {
        dim {
          size: 2
        }
        dim {
          size: 2
        }
      }
    }
  }
}
node {
  name: "Placeholder_3"
  op: "Placeholder"
  attr {
    key: "dtype"
    value {
      type: DT_INT32
    }
  }
  attr {
    key: "shape"
    value {
      shape {
        dim {
          size: 2
        }
      }
    }
  }
}
node {
  name: "Pad"
  op: "Pad"
  input: "Mul"
  input: "Placeholder_2"
  attr {
    key: "T"
    value {
      type: DT_FLOAT
    }
  }
  attr {
    key: "Tpaddings"
    value {
      type: DT_INT32
    }
  }
}
node {
  name: "Slice/size"
  op: "Const"
  attr {
    key: "dtype"
    value {
      type: DT_INT32
    }
  }
  attr {
    key: "value"
    value {
      tensor {
        dtype: DT_INT32
        tensor_shape {
          dim {
            size: 2
          }
        }
        tensor_content: "\200>\000\000\377\377\377\377"
      }
    }
  }
}
node {
  name: "Slice"
  op: "Slice"
  input: "Pad"
  input: "Placeholder_3"
  input: "Slice/size"
  attr {
    key: "Index"
    value {
      type: DT_INT32
    }
  }
  attr {
    key: "T"
    value {
      type: DT_FLOAT
    }
  }
}
node {
  name: "Placeholder_4"
  op: "Placeholder"
  attr {
    key: "dtype"
    value {
      type: DT_FLOAT
    }
  }
  attr {
    key: "shape"
    value {
      shape {
        dim {
          size: 16000
        }
        dim {
          size: 1
        }
      }
    }
  }
}
node {
  name: "Placeholder_5"
  op: "Placeholder"
  attr {
    key: "dtype"
    value {
      type: DT_FLOAT
    }
  }
  attr {
    key: "shape"
    value {
      shape {
      }
    }
  }
}
node {
  name: "Mul_1"
  op: "Mul"
  input: "Placeholder_4"
  input: "Placeholder_5"
  attr {
    key: "T"
    value {
      type: DT_FLOAT
    }
  }
}
node {
  name: "Add"
  op: "Add"
  input: "Mul_1"
  input: "Slice"
  attr {
    key: "T"
    value {
      type: DT_FLOAT
    }
  }
}
node {
  name: "clip_by_value/Minimum/y"
  op: "Const"
  attr {
    key: "dtype"
    value {
      type: DT_FLOAT
    }
  }
  attr {
    key: "value"
    value {
      tensor {
        dtype: DT_FLOAT
        tensor_shape {
        }
        float_val: 1.0
      }
    }
  }
}
node {
  name: "clip_by_value/Minimum"
  op: "Minimum"
  input: "Add"
  input: "clip_by_value/Minimum/y"
  attr {
    key: "T"
    value {
      type: DT_FLOAT
    }
  }
}
node {
  name: "clip_by_value/y"
  op: "Const"
  attr {
    key: "dtype"
    value {
      type: DT_FLOAT
    }
  }
  attr {
    key: "value"
    value {
      tensor {
        dtype: DT_FLOAT
        tensor_shape {
        }
        float_val: -1.0
      }
    }
  }
}
node {
  name: "clip_by_value"
  op: "Maximum"
  input: "clip_by_value/Minimum"
  input: "clip_by_value/y"
  attr {
    key: "T"
    value {
      type: DT_FLOAT
    }
  }
}
node {
  name: "AudioSpectrogram"
  op: "AudioSpectrogram"
  input: "clip_by_value"
  attr {
    key: "magnitude_squared"
    value {
      b: true
    }
  }
  attr {
    key: "stride"
    value {
      i: 160
    }
  }
  attr {
    key: "window_size"
    value {
      i: 480
    }
  }
}
node {
  name: "Mfcc"
  op: "Mfcc"
  input: "AudioSpectrogram"
  input: "DecodeWav:1"
  attr {
    key: "dct_coefficient_count"
    value {
      i: 40
    }
  }
  attr {
    key: "filterbank_channel_count"
    value {
      i: 40
    }
  }
  attr {
    key: "lower_frequency_limit"
    value {
      f: 20.0
    }
  }
  attr {
    key: "upper_frequency_limit"
    value {
      f: 4000.0
    }
  }
}
node {
  name: "fingerprint_input"
  op: "Placeholder"
  attr {
    key: "dtype"
    value {
      type: DT_FLOAT
    }
  }
  attr {
    key: "shape"
    value {
      shape {
        dim {
          size: -1
        }
        dim {
          size: 3920
        }
      }
    }
  }
}
node {
  name: "dropout_prob"
  op: "Placeholder"
  attr {
    key: "dtype"
    value {
      type: DT_FLOAT
    }
  }
  attr {
    key: "shape"
    value {
      shape {
        unknown_rank: true
      }
    }
  }
}
node {
  name: "Reshape/shape"
  op: "Const"
  attr {
    key: "dtype"
    value {
      type: DT_INT32
    }
  }
  attr {
    key: "value"
    value {
      tensor {
        dtype: DT_INT32
        tensor_shape {
          dim {
            size: 4
          }
        }
        tensor_content: "\377\377\377\377b\000\000\000(\000\000\000\001\000\000\000"
      }
    }
  }
}
node {
  name: "Reshape"
  op: "Reshape"
  input: "fingerprint_input"
  input: "Reshape/shape"
  attr {
    key: "T"
    value {
      type: DT_FLOAT
    }
  }
  attr {
    key: "Tshape"
    value {
      type: DT_INT32
    }
  }
}
node {
  name: "ResizeBilinear/size"
  op: "Const"
  attr {
    key: "dtype"
    value {
      type: DT_INT32
    }
  }
  attr {
    key: "value"
    value {
      tensor {
        dtype: DT_INT32
        tensor_shape {
          dim {
            size: 2
          }
        }
        tensor_content: "\340\000\000\000\340\000\000\000"
      }
    }
  }
}
node {
  name: "ResizeBilinear"
  op: "ResizeBilinear"
  input: "Reshape"
  input: "ResizeBilinear/size"
  attr {
    key: "T"
    value {
      type: DT_FLOAT
    }
  }
  attr {
    key: "align_corners"
    value {
      b: false
    }
  }
}
node {
  name: "MobileNet/conv_1/weights/Initializer/random_uniform/shape"
  op: "Const"
  attr {
    key: "_class"
    value {
      list {
        s: "loc:@MobileNet/conv_1/weights"
      }
    }
  }
  attr {
    key: "dtype"
    value {
      type: DT_INT32
    }
  }
  attr {
    key: "value"
    value {
      tensor {
        dtype: DT_INT32
        tensor_shape {
          dim {
            size: 4
          }
        }
        tensor_content: "\003\000\000\000\003\000\000\000\001\000\000\000 \000\000\000"
      }
    }
  }
}
node {
  name: "MobileNet/conv_1/weights/Initializer/random_uniform/min"
  op: "Const"
  attr {
    key: "_class"
    value {
      list {
        s: "loc:@MobileNet/conv_1/weights"
      }
    }
  }
  attr {
    key: "dtype"
    value {
      type: DT_FLOAT
    }
  }
  attr {
    key: "value"
    value {
      tensor {
        dtype: DT_FLOAT
        tensor_shape {
        }
        float_val: -0.14213381707668304
      }
    }
  }
}
node {
  name: "MobileNet/conv_1/weights/Initializer/random_uniform/max"
  op: "Const"
  attr {
    key: "_class"
    value {
      list {
        s: "loc:@MobileNet/conv_1/weights"
      }
    }
  }
  attr {
    key: "dtype"
    value {
      type: DT_FLOAT
    }
  }
  attr {
    key: "value"
    value {
      tensor {
        dtype: DT_FLOAT
        tensor_shape {
        }
        float_val: 0.14213381707668304
      }
    }
  }
}
node {
  name: "MobileNet/conv_1/weights/Initializer/random_uniform/RandomUniform"
  op: "RandomUniform"
  input: "MobileNet/conv_1/weights/Initializer/random_uniform/shape"
  attr {
    key: "T"
    value {
      type: DT_INT32
    }
  }
  attr {
    key: "_class"
    value {
      list {
        s: "loc:@MobileNet/conv_1/weights"
      }
    }
  }
  attr {
    key: "dtype"
    value {
      type: DT_FLOAT
    }
  }
  attr {
    key: "seed"
    value {
      i: 0
    }
  }
  attr {
    key: "seed2"
    value {
      i: 0
    }
  }
}
node {
  name: "MobileNet/conv_1/weights/Initializer/random_uniform/sub"
  op: "Sub"
  input: "MobileNet/conv_1/weights/Initializer/random_uniform/max"
  input: "MobileNet/conv_1/weights/Initializer/random_uniform/min"
  attr {
    key: "T"
    value {
      type: DT_FLOAT
    }
  }
  attr {
    key: "_class"
    value {
      list {
        s: "loc:@MobileNet/conv_1/weights"
      }
    }
  }
}
node {
  name: "MobileNet/conv_1/weights/Initializer/random_uniform/mul"
  op: "Mul"
  input: "MobileNet/conv_1/weights/Initializer/random_uniform/RandomUniform"
  input: "MobileNet/conv_1/weights/Initializer/random_uniform/sub"
  attr {
    key: "T"
    value {
      type: DT_FLOAT
    }
  }
  attr {
    key: "_class"
    value {
      list {
        s: "loc:@MobileNet/conv_1/weights"
      }
    }
  }
}
node {
  name: "MobileNet/conv_1/weights/Initializer/random_uniform"
  op: "Add"
  input: "MobileNet/conv_1/weights/Initializer/random_uniform/mul"
  input: "MobileNet/conv_1/weights/Initializer/random_uniform/min"
  attr {
    key: "T"
    value {
      type: DT_FLOAT
    }
  }
  attr {
    key: "_class"
    value {
      list {
        s: "loc:@MobileNet/conv_1/weights"
      }
    }
  }
}
node {
  name: "MobileNet/conv_1/weights"
  op: "VariableV2"
  attr {
    key: "_class"
    value {
      list {
        s: "loc:@MobileNet/conv_1/weights"
      }
    }
  }
  attr {
    key: "container"
    value {
      s: ""
    }
  }
  attr {
    key: "dtype"
    value {
      type: DT_FLOAT
    }
  }
  attr {
    key: "shape"
    value {
      shape {
        dim {
          size: 3
        }
        dim {
          size: 3
        }
        dim {
          size: 1
        }
        dim {
          size: 32
        }
      }
    }
  }
  attr {
    key: "shared_name"
    value {
      s: ""
    }
  }
}
node {
  name: "MobileNet/conv_1/weights/Assign"
  op: "Assign"
  input: "MobileNet/conv_1/weights"
  input: "MobileNet/conv_1/weights/Initializer/random_uniform"
  attr {
    key: "T"
    value {
      type: DT_FLOAT
    }
  }
  attr {
    key: "_class"
    value {
      list {
        s: "loc:@MobileNet/conv_1/weights"
      }
    }
  }
  attr {
    key: "use_locking"
    value {
      b: true
    }
  }
  attr {
    key: "validate_shape"
    value {
      b: true
    }
  }
}
node {
  name: "MobileNet/conv_1/weights/read"
  op: "Identity"
  input: "MobileNet/conv_1/weights"
  attr {
    key: "T"
    value {
      type: DT_FLOAT
    }
  }
  attr {
    key: "_class"
    value {
      list {
        s: "loc:@MobileNet/conv_1/weights"
      }
    }
  }
}
node {
  name: "MobileNet/conv_1/biases/Initializer/zeros"
  op: "Const"
  attr {
    key: "_class"
    value {
      list {
        s: "loc:@MobileNet/conv_1/biases"
      }
    }
  }
  attr {
    key: "dtype"
    value {
      type: DT_FLOAT
    }
  }
  attr {
    key: "value"
    value {
      tensor {
        dtype: DT_FLOAT
        tensor_shape {
          dim {
            size: 32
          }
        }
        float_val: 0.0
      }
    }
  }
}
node {
  name: "MobileNet/conv_1/biases"
  op: "VariableV2"
  attr {
    key: "_class"
    value {
      list {
        s: "loc:@MobileNet/conv_1/biases"
      }
    }
  }
  attr {
    key: "container"
    value {
      s: ""
    }
  }
  attr {
    key: "dtype"
    value {
      type: DT_FLOAT
    }
  }
  attr {
    key: "shape"
    value {
      shape {
        dim {
          size: 32
        }
      }
    }
  }
  attr {
    key: "shared_name"
    value {
      s: ""
    }
  }
}
node {
  name: "MobileNet/conv_1/biases/Assign"
  op: "Assign"
  input: "MobileNet/conv_1/biases"
  input: "MobileNet/conv_1/biases/Initializer/zeros"
  attr {
    key: "T"
    value {
      type: DT_FLOAT
    }
  }
  attr {
    key: "_class"
    value {
      list {
        s: "loc:@MobileNet/conv_1/biases"
      }
    }
  }
  attr {
    key: "use_locking"
    value {
      b: true
    }
  }
  attr {
    key: "validate_shape"
    value {
      b: true
    }
  }
}
node {
  name: "MobileNet/conv_1/biases/read"
  op: "Identity"
  input: "MobileNet/conv_1/biases"
  attr {
    key: "T"
    value {
      type: DT_FLOAT
    }
  }
  attr {
    key: "_class"
    value {
      list {
        s: "loc:@MobileNet/conv_1/biases"
      }
    }
  }
}
node {
  name: "MobileNet/conv_1/dilation_rate"
  op: "Const"
  attr {
    key: "dtype"
    value {
      type: DT_INT32
    }
  }
  attr {
    key: "value"
    value {
      tensor {
        dtype: DT_INT32
        tensor_shape {
          dim {
            size: 2
          }
        }
        tensor_content: "\001\000\000\000\001\000\000\000"
      }
    }
  }
}
node {
  name: "MobileNet/conv_1/Conv2D"
  op: "Conv2D"
  input: "ResizeBilinear"
  input: "MobileNet/conv_1/weights/read"
  attr {
    key: "T"
    value {
      type: DT_FLOAT
    }
  }
  attr {
    key: "data_format"
    value {
      s: "NHWC"
    }
  }
  attr {
    key: "padding"
    value {
      s: "SAME"
    }
  }
  attr {
    key: "strides"
    value {
      list {
        i: 1
        i: 2
        i: 2
        i: 1
      }
    }
  }
  attr {
    key: "use_cudnn_on_gpu"
    value {
      b: true
    }
  }
}
node {
  name: "MobileNet/conv_1/BiasAdd"
  op: "BiasAdd"
  input: "MobileNet/conv_1/Conv2D"
  input: "MobileNet/conv_1/biases/read"
  attr {
    key: "T"
    value {
      type: DT_FLOAT
    }
  }
  attr {
    key: "data_format"
    value {
      s: "NHWC"
    }
  }
}
node {
  name: "MobileNet/conv_1/batch_norm/Const"
  op: "Const"
  attr {
    key: "dtype"
    value {
      type: DT_FLOAT
    }
  }
  attr {
    key: "value"
    value {
      tensor {
        dtype: DT_FLOAT
        tensor_shape {
          dim {
            size: 32
          }
        }
        float_val: 1.0
      }
    }
  }
}
node {
  name: "MobileNet/conv_1/batch_norm/beta/Initializer/zeros"
  op: "Const"
  attr {
    key: "_class"
    value {
      list {
        s: "loc:@MobileNet/conv_1/batch_norm/beta"
      }
    }
  }
  attr {
    key: "dtype"
    value {
      type: DT_FLOAT
    }
  }
  attr {
    key: "value"
    value {
      tensor {
        dtype: DT_FLOAT
        tensor_shape {
          dim {
            size: 32
          }
        }
        float_val: 0.0
      }
    }
  }
}
node {
  name: "MobileNet/conv_1/batch_norm/beta"
  op: "VariableV2"
  attr {
    key: "_class"
    value {
      list {
        s: "loc:@MobileNet/conv_1/batch_norm/beta"
      }
    }
  }
  attr {
    key: "container"
    value {
      s: ""
    }
  }
  attr {
    key: "dtype"
    value {
      type: DT_FLOAT
    }
  }
  attr {
    key: "shape"
    value {
      shape {
        dim {
          size: 32
        }
      }
    }
  }
  attr {
    key: "shared_name"
    value {
      s: ""
    }
  }
}
node {
  name: "MobileNet/conv_1/batch_norm/beta/Assign"
  op: "Assign"
  input: "MobileNet/conv_1/batch_norm/beta"
  input: "MobileNet/conv_1/batch_norm/beta/Initializer/zeros"
  attr {
    key: "T"
    value {
      type: DT_FLOAT
    }
  }
  attr {
    key: "_class"
    value {
      list {
        s: "loc:@MobileNet/conv_1/batch_norm/beta"
      }
    }
  }
  attr {
    key: "use_locking"
    value {
      b: true
    }
  }
  attr {
    key: "validate_shape"
    value {
      b: true
    }
  }
}
node {
  name: "MobileNet/conv_1/batch_norm/beta/read"
  op: "Identity"
  input: "MobileNet/conv_1/batch_norm/beta"
  attr {
    key: "T"
    value {
      type: DT_FLOAT
    }
  }
  attr {
    key: "_class"
    value {
      list {
        s: "loc:@MobileNet/conv_1/batch_norm/beta"
      }
    }
  }
}
node {
  name: "MobileNet/conv_1/batch_norm/moving_mean/Initializer/zeros"
  op: "Const"
  attr {
    key: "_class"
    value {
      list {
        s: "loc:@MobileNet/conv_1/batch_norm/moving_mean"
      }
    }
  }
  attr {
    key: "dtype"
    value {
      type: DT_FLOAT
    }
  }
  attr {
    key: "value"
    value {
      tensor {
        dtype: DT_FLOAT
        tensor_shape {
          dim {
            size: 32
          }
        }
        float_val: 0.0
      }
    }
  }
}
node {
  name: "MobileNet/conv_1/batch_norm/moving_mean"
  op: "VariableV2"
  attr {
    key: "_class"
    value {
      list {
        s: "loc:@MobileNet/conv_1/batch_norm/moving_mean"
      }
    }
  }
  attr {
    key: "container"
    value {
      s: ""
    }
  }
  attr {
    key: "dtype"
    value {
      type: DT_FLOAT
    }
  }
  attr {
    key: "shape"
    value {
      shape {
        dim {
          size: 32
        }
      }
    }
  }
  attr {
    key: "shared_name"
    value {
      s: ""
    }
  }
}
node {
  name: "MobileNet/conv_1/batch_norm/moving_mean/Assign"
  op: "Assign"
  input: "MobileNet/conv_1/batch_norm/moving_mean"
  input: "MobileNet/conv_1/batch_norm/moving_mean/Initializer/zeros"
  attr {
    key: "T"
    value {
      type: DT_FLOAT
    }
  }
  attr {
    key: "_class"
    value {
      list {
        s: "loc:@MobileNet/conv_1/batch_norm/moving_mean"
      }
    }
  }
  attr {
    key: "use_locking"
    value {
      b: true
    }
  }
  attr {
    key: "validate_shape"
    value {
      b: true
    }
  }
}
node {
  name: "MobileNet/conv_1/batch_norm/moving_mean/read"
  op: "Identity"
  input: "MobileNet/conv_1/batch_norm/moving_mean"
  attr {
    key: "T"
    value {
      type: DT_FLOAT
    }
  }
  attr {
    key: "_class"
    value {
      list {
        s: "loc:@MobileNet/conv_1/batch_norm/moving_mean"
      }
    }
  }
}
node {
  name: "MobileNet/conv_1/batch_norm/moving_variance/Initializer/ones"
  op: "Const"
  attr {
    key: "_class"
    value {
      list {
        s: "loc:@MobileNet/conv_1/batch_norm/moving_variance"
      }
    }
  }
  attr {
    key: "dtype"
    value {
      type: DT_FLOAT
    }
  }
  attr {
    key: "value"
    value {
      tensor {
        dtype: DT_FLOAT
        tensor_shape {
          dim {
            size: 32
          }
        }
        float_val: 1.0
      }
    }
  }
}
node {
  name: "MobileNet/conv_1/batch_norm/moving_variance"
  op: "VariableV2"
  attr {
    key: "_class"
    value {
      list {
        s: "loc:@MobileNet/conv_1/batch_norm/moving_variance"
      }
    }
  }
  attr {
    key: "container"
    value {
      s: ""
    }
  }
  attr {
    key: "dtype"
    value {
      type: DT_FLOAT
    }
  }
  attr {
    key: "shape"
    value {
      shape {
        dim {
          size: 32
        }
      }
    }
  }
  attr {
    key: "shared_name"
    value {
      s: ""
    }
  }
}
node {
  name: "MobileNet/conv_1/batch_norm/moving_variance/Assign"
  op: "Assign"
  input: "MobileNet/conv_1/batch_norm/moving_variance"
  input: "MobileNet/conv_1/batch_norm/moving_variance/Initializer/ones"
  attr {
    key: "T"
    value {
      type: DT_FLOAT
    }
  }
  attr {
    key: "_class"
    value {
      list {
        s: "loc:@MobileNet/conv_1/batch_norm/moving_variance"
      }
    }
  }
  attr {
    key: "use_locking"
    value {
      b: true
    }
  }
  attr {
    key: "validate_shape"
    value {
      b: true
    }
  }
}
node {
  name: "MobileNet/conv_1/batch_norm/moving_variance/read"
  op: "Identity"
  input: "MobileNet/conv_1/batch_norm/moving_variance"
  attr {
    key: "T"
    value {
      type: DT_FLOAT
    }
  }
  attr {
    key: "_class"
    value {
      list {
        s: "loc:@MobileNet/conv_1/batch_norm/moving_variance"
      }
    }
  }
}
node {
  name: "MobileNet/conv_1/batch_norm/Const_1"
  op: "Const"
  attr {
    key: "dtype"
    value {
      type: DT_FLOAT
    }
  }
  attr {
    key: "value"
    value {
      tensor {
        dtype: DT_FLOAT
        tensor_shape {
          dim {
          }
        }
      }
    }
  }
}
node {
  name: "MobileNet/conv_1/batch_norm/Const_2"
  op: "Const"
  attr {
    key: "dtype"
    value {
      type: DT_FLOAT
    }
  }
  attr {
    key: "value"
    value {
      tensor {
        dtype: DT_FLOAT
        tensor_shape {
          dim {
          }
        }
      }
    }
  }
}
node {
  name: "MobileNet/conv_1/batch_norm/FusedBatchNorm"
  op: "FusedBatchNorm"
  input: "MobileNet/conv_1/BiasAdd"
  input: "MobileNet/conv_1/batch_norm/Const"
  input: "MobileNet/conv_1/batch_norm/beta/read"
  input: "MobileNet/conv_1/batch_norm/Const_1"
  input: "MobileNet/conv_1/batch_norm/Const_2"
  attr {
    key: "T"
    value {
      type: DT_FLOAT
    }
  }
  attr {
    key: "data_format"
    value {
      s: "NHWC"
    }
  }
  attr {
    key: "epsilon"
    value {
      f: 0.0010000000474974513
    }
  }
  attr {
    key: "is_training"
    value {
      b: true
    }
  }
}
node {
  name: "MobileNet/conv_1/batch_norm/Const_3"
  op: "Const"
  attr {
    key: "dtype"
    value {
      type: DT_FLOAT
    }
  }
  attr {
    key: "value"
    value {
      tensor {
        dtype: DT_FLOAT
        tensor_shape {
        }
        float_val: 0.0010000000474974513
      }
    }
  }
}
node {
  name: "MobileNet/conv_1/batch_norm/AssignMovingAvg/read"
  op: "Identity"
  input: "MobileNet/conv_1/batch_norm/moving_mean"
  attr {
    key: "T"
    value {
      type: DT_FLOAT
    }
  }
  attr {
    key: "_class"
    value {
      list {
        s: "loc:@MobileNet/conv_1/batch_norm/moving_mean"
      }
    }
  }
}
node {
  name: "MobileNet/conv_1/batch_norm/AssignMovingAvg/Sub"
  op: "Sub"
  input: "MobileNet/conv_1/batch_norm/AssignMovingAvg/read"
  input: "MobileNet/conv_1/batch_norm/FusedBatchNorm:1"
  attr {
    key: "T"
    value {
      type: DT_FLOAT
    }
  }
  attr {
    key: "_class"
    value {
      list {
        s: "loc:@MobileNet/conv_1/batch_norm/moving_mean"
      }
    }
  }
}
node {
  name: "MobileNet/conv_1/batch_norm/AssignMovingAvg/Mul"
  op: "Mul"
  input: "MobileNet/conv_1/batch_norm/AssignMovingAvg/Sub"
  input: "MobileNet/conv_1/batch_norm/Const_3"
  attr {
    key: "T"
    value {
      type: DT_FLOAT
    }
  }
  attr {
    key: "_class"
    value {
      list {
        s: "loc:@MobileNet/conv_1/batch_norm/moving_mean"
      }
    }
  }
}
node {
  name: "MobileNet/conv_1/batch_norm/AssignMovingAvg"
  op: "AssignSub"
  input: "MobileNet/conv_1/batch_norm/moving_mean"
  input: "MobileNet/conv_1/batch_norm/AssignMovingAvg/Mul"
  attr {
    key: "T"
    value {
      type: DT_FLOAT
    }
  }
  attr {
    key: "_class"
    value {
      list {
        s: "loc:@MobileNet/conv_1/batch_norm/moving_mean"
      }
    }
  }
  attr {
    key: "use_locking"
    value {
      b: false
    }
  }
}
node {
  name: "MobileNet/conv_1/batch_norm/AssignMovingAvg_1/read"
  op: "Identity"
  input: "MobileNet/conv_1/batch_norm/moving_variance"
  attr {
    key: "T"
    value {
      type: DT_FLOAT
    }
  }
  attr {
    key: "_class"
    value {
      list {
        s: "loc:@MobileNet/conv_1/batch_norm/moving_variance"
      }
    }
  }
}
node {
  name: "MobileNet/conv_1/batch_norm/AssignMovingAvg_1/Sub"
  op: "Sub"
  input: "MobileNet/conv_1/batch_norm/AssignMovingAvg_1/read"
  input: "MobileNet/conv_1/batch_norm/FusedBatchNorm:2"
  attr {
    key: "T"
    value {
      type: DT_FLOAT
    }
  }
  attr {
    key: "_class"
    value {
      list {
        s: "loc:@MobileNet/conv_1/batch_norm/moving_variance"
      }
    }
  }
}
node {
  name: "MobileNet/conv_1/batch_norm/AssignMovingAvg_1/Mul"
  op: "Mul"
  input: "MobileNet/conv_1/batch_norm/AssignMovingAvg_1/Sub"
  input: "MobileNet/conv_1/batch_norm/Const_3"
  attr {
    key: "T"
    value {
      type: DT_FLOAT
    }
  }
  attr {
    key: "_class"
    value {
      list {
        s: "loc:@MobileNet/conv_1/batch_norm/moving_variance"
      }
    }
  }
}
node {
  name: "MobileNet/conv_1/batch_norm/AssignMovingAvg_1"
  op: "AssignSub"
  input: "MobileNet/conv_1/batch_norm/moving_variance"
  input: "MobileNet/conv_1/batch_norm/AssignMovingAvg_1/Mul"
  attr {
    key: "T"
    value {
      type: DT_FLOAT
    }
  }
  attr {
    key: "_class"
    value {
      list {
        s: "loc:@MobileNet/conv_1/batch_norm/moving_variance"
      }
    }
  }
  attr {
    key: "use_locking"
    value {
      b: false
    }
  }
}
node {
  name: "MobileNet/conv_1/batch_norm/Relu"
  op: "Relu"
  input: "MobileNet/conv_1/batch_norm/FusedBatchNorm"
  attr {
    key: "T"
    value {
      type: DT_FLOAT
    }
  }
}
node {
  name: "MobileNet/conv_ds_2/depthwise_conv/depthwise_weights/Initializer/random_uniform/shape"
  op: "Const"
  attr {
    key: "_class"
    value {
      list {
        s: "loc:@MobileNet/conv_ds_2/depthwise_conv/depthwise_weights"
      }
    }
  }
  attr {
    key: "dtype"
    value {
      type: DT_INT32
    }
  }
  attr {
    key: "value"
    value {
      tensor {
        dtype: DT_INT32
        tensor_shape {
          dim {
            size: 4
          }
        }
        tensor_content: "\003\000\000\000\003\000\000\000 \000\000\000\001\000\000\000"
      }
    }
  }
}
node {
  name: "MobileNet/conv_ds_2/depthwise_conv/depthwise_weights/Initializer/random_uniform/min"
  op: "Const"
  attr {
    key: "_class"
    value {
      list {
        s: "loc:@MobileNet/conv_ds_2/depthwise_conv/depthwise_weights"
      }
    }
  }
  attr {
    key: "dtype"
    value {
      type: DT_FLOAT
    }
  }
  attr {
    key: "value"
    value {
      tensor {
        dtype: DT_FLOAT
        tensor_shape {
        }
        float_val: -0.14213381707668304
      }
    }
  }
}
node {
  name: "MobileNet/conv_ds_2/depthwise_conv/depthwise_weights/Initializer/random_uniform/max"
  op: "Const"
  attr {
    key: "_class"
    value {
      list {
        s: "loc:@MobileNet/conv_ds_2/depthwise_conv/depthwise_weights"
      }
    }
  }
  attr {
    key: "dtype"
    value {
      type: DT_FLOAT
    }
  }
  attr {
    key: "value"
    value {
      tensor {
        dtype: DT_FLOAT
        tensor_shape {
        }
        float_val: 0.14213381707668304
      }
    }
  }
}
node {
  name: "MobileNet/conv_ds_2/depthwise_conv/depthwise_weights/Initializer/random_uniform/RandomUniform"
  op: "RandomUniform"
  input: "MobileNet/conv_ds_2/depthwise_conv/depthwise_weights/Initializer/random_uniform/shape"
  attr {
    key: "T"
    value {
      type: DT_INT32
    }
  }
  attr {
    key: "_class"
    value {
      list {
        s: "loc:@MobileNet/conv_ds_2/depthwise_conv/depthwise_weights"
      }
    }
  }
  attr {
    key: "dtype"
    value {
      type: DT_FLOAT
    }
  }
  attr {
    key: "seed"
    value {
      i: 0
    }
  }
  attr {
    key: "seed2"
    value {
      i: 0
    }
  }
}
node {
  name: "MobileNet/conv_ds_2/depthwise_conv/depthwise_weights/Initializer/random_uniform/sub"
  op: "Sub"
  input: "MobileNet/conv_ds_2/depthwise_conv/depthwise_weights/Initializer/random_uniform/max"
  input: "MobileNet/conv_ds_2/depthwise_conv/depthwise_weights/Initializer/random_uniform/min"
  attr {
    key: "T"
    value {
      type: DT_FLOAT
    }
  }
  attr {
    key: "_class"
    value {
      list {
        s: "loc:@MobileNet/conv_ds_2/depthwise_conv/depthwise_weights"
      }
    }
  }
}
node {
  name: "MobileNet/conv_ds_2/depthwise_conv/depthwise_weights/Initializer/random_uniform/mul"
  op: "Mul"
  input: "MobileNet/conv_ds_2/depthwise_conv/depthwise_weights/Initializer/random_uniform/RandomUniform"
  input: "MobileNet/conv_ds_2/depthwise_conv/depthwise_weights/Initializer/random_uniform/sub"
  attr {
    key: "T"
    value {
      type: DT_FLOAT
    }
  }
  attr {
    key: "_class"
    value {
      list {
        s: "loc:@MobileNet/conv_ds_2/depthwise_conv/depthwise_weights"
      }
    }
  }
}
node {
  name: "MobileNet/conv_ds_2/depthwise_conv/depthwise_weights/Initializer/random_uniform"
  op: "Add"
  input: "MobileNet/conv_ds_2/depthwise_conv/depthwise_weights/Initializer/random_uniform/mul"
  input: "MobileNet/conv_ds_2/depthwise_conv/depthwise_weights/Initializer/random_uniform/min"
  attr {
    key: "T"
    value {
      type: DT_FLOAT
    }
  }
  attr {
    key: "_class"
    value {
      list {
        s: "loc:@MobileNet/conv_ds_2/depthwise_conv/depthwise_weights"
      }
    }
  }
}
node {
  name: "MobileNet/conv_ds_2/depthwise_conv/depthwise_weights"
  op: "VariableV2"
  attr {
    key: "_class"
    value {
      list {
        s: "loc:@MobileNet/conv_ds_2/depthwise_conv/depthwise_weights"
      }
    }
  }
  attr {
    key: "container"
    value {
      s: ""
    }
  }
  attr {
    key: "dtype"
    value {
      type: DT_FLOAT
    }
  }
  attr {
    key: "shape"
    value {
      shape {
        dim {
          size: 3
        }
        dim {
          size: 3
        }
        dim {
          size: 32
        }
        dim {
          size: 1
        }
      }
    }
  }
  attr {
    key: "shared_name"
    value {
      s: ""
    }
  }
}
node {
  name: "MobileNet/conv_ds_2/depthwise_conv/depthwise_weights/Assign"
  op: "Assign"
  input: "MobileNet/conv_ds_2/depthwise_conv/depthwise_weights"
  input: "MobileNet/conv_ds_2/depthwise_conv/depthwise_weights/Initializer/random_uniform"
  attr {
    key: "T"
    value {
      type: DT_FLOAT
    }
  }
  attr {
    key: "_class"
    value {
      list {
        s: "loc:@MobileNet/conv_ds_2/depthwise_conv/depthwise_weights"
      }
    }
  }
  attr {
    key: "use_locking"
    value {
      b: true
    }
  }
  attr {
    key: "validate_shape"
    value {
      b: true
    }
  }
}
node {
  name: "MobileNet/conv_ds_2/depthwise_conv/depthwise_weights/read"
  op: "Identity"
  input: "MobileNet/conv_ds_2/depthwise_conv/depthwise_weights"
  attr {
    key: "T"
    value {
      type: DT_FLOAT
    }
  }
  attr {
    key: "_class"
    value {
      list {
        s: "loc:@MobileNet/conv_ds_2/depthwise_conv/depthwise_weights"
      }
    }
  }
}
node {
  name: "MobileNet/conv_ds_2/depthwise_conv/depthwise/Shape"
  op: "Const"
  attr {
    key: "dtype"
    value {
      type: DT_INT32
    }
  }
  attr {
    key: "value"
    value {
      tensor {
        dtype: DT_INT32
        tensor_shape {
          dim {
            size: 4
          }
        }
        tensor_content: "\003\000\000\000\003\000\000\000 \000\000\000\001\000\000\000"
      }
    }
  }
}
node {
  name: "MobileNet/conv_ds_2/depthwise_conv/depthwise/dilation_rate"
  op: "Const"
  attr {
    key: "dtype"
    value {
      type: DT_INT32
    }
  }
  attr {
    key: "value"
    value {
      tensor {
        dtype: DT_INT32
        tensor_shape {
          dim {
            size: 2
          }
        }
        tensor_content: "\001\000\000\000\001\000\000\000"
      }
    }
  }
}
node {
  name: "MobileNet/conv_ds_2/depthwise_conv/depthwise"
  op: "DepthwiseConv2dNative"
  input: "MobileNet/conv_1/batch_norm/Relu"
  input: "MobileNet/conv_ds_2/depthwise_conv/depthwise_weights/read"
  attr {
    key: "T"
    value {
      type: DT_FLOAT
    }
  }
  attr {
    key: "data_format"
    value {
      s: "NHWC"
    }
  }
  attr {
    key: "padding"
    value {
      s: "SAME"
    }
  }
  attr {
    key: "strides"
    value {
      list {
        i: 1
        i: 1
        i: 1
        i: 1
      }
    }
  }
}
node {
  name: "MobileNet/conv_ds_2/depthwise_conv/biases/Initializer/zeros"
  op: "Const"
  attr {
    key: "_class"
    value {
      list {
        s: "loc:@MobileNet/conv_ds_2/depthwise_conv/biases"
      }
    }
  }
  attr {
    key: "dtype"
    value {
      type: DT_FLOAT
    }
  }
  attr {
    key: "value"
    value {
      tensor {
        dtype: DT_FLOAT
        tensor_shape {
          dim {
            size: 32
          }
        }
        float_val: 0.0
      }
    }
  }
}
node {
  name: "MobileNet/conv_ds_2/depthwise_conv/biases"
  op: "VariableV2"
  attr {
    key: "_class"
    value {
      list {
        s: "loc:@MobileNet/conv_ds_2/depthwise_conv/biases"
      }
    }
  }
  attr {
    key: "container"
    value {
      s: ""
    }
  }
  attr {
    key: "dtype"
    value {
      type: DT_FLOAT
    }
  }
  attr {
    key: "shape"
    value {
      shape {
        dim {
          size: 32
        }
      }
    }
  }
  attr {
    key: "shared_name"
    value {
      s: ""
    }
  }
}
node {
  name: "MobileNet/conv_ds_2/depthwise_conv/biases/Assign"
  op: "Assign"
  input: "MobileNet/conv_ds_2/depthwise_conv/biases"
  input: "MobileNet/conv_ds_2/depthwise_conv/biases/Initializer/zeros"
  attr {
    key: "T"
    value {
      type: DT_FLOAT
    }
  }
  attr {
    key: "_class"
    value {
      list {
        s: "loc:@MobileNet/conv_ds_2/depthwise_conv/biases"
      }
    }
  }
  attr {
    key: "use_locking"
    value {
      b: true
    }
  }
  attr {
    key: "validate_shape"
    value {
      b: true
    }
  }
}
node {
  name: "MobileNet/conv_ds_2/depthwise_conv/biases/read"
  op: "Identity"
  input: "MobileNet/conv_ds_2/depthwise_conv/biases"
  attr {
    key: "T"
    value {
      type: DT_FLOAT
    }
  }
  attr {
    key: "_class"
    value {
      list {
        s: "loc:@MobileNet/conv_ds_2/depthwise_conv/biases"
      }
    }
  }
}
node {
  name: "MobileNet/conv_ds_2/depthwise_conv/BiasAdd"
  op: "BiasAdd"
  input: "MobileNet/conv_ds_2/depthwise_conv/depthwise"
  input: "MobileNet/conv_ds_2/depthwise_conv/biases/read"
  attr {
    key: "T"
    value {
      type: DT_FLOAT
    }
  }
  attr {
    key: "data_format"
    value {
      s: "NHWC"
    }
  }
}
node {
  name: "MobileNet/conv_ds_2/dw_batch_norm/Const"
  op: "Const"
  attr {
    key: "dtype"
    value {
      type: DT_FLOAT
    }
  }
  attr {
    key: "value"
    value {
      tensor {
        dtype: DT_FLOAT
        tensor_shape {
          dim {
            size: 32
          }
        }
        float_val: 1.0
      }
    }
  }
}
node {
  name: "MobileNet/conv_ds_2/dw_batch_norm/beta/Initializer/zeros"
  op: "Const"
  attr {
    key: "_class"
    value {
      list {
        s: "loc:@MobileNet/conv_ds_2/dw_batch_norm/beta"
      }
    }
  }
  attr {
    key: "dtype"
    value {
      type: DT_FLOAT
    }
  }
  attr {
    key: "value"
    value {
      tensor {
        dtype: DT_FLOAT
        tensor_shape {
          dim {
            size: 32
          }
        }
        float_val: 0.0
      }
    }
  }
}
node {
  name: "MobileNet/conv_ds_2/dw_batch_norm/beta"
  op: "VariableV2"
  attr {
    key: "_class"
    value {
      list {
        s: "loc:@MobileNet/conv_ds_2/dw_batch_norm/beta"
      }
    }
  }
  attr {
    key: "container"
    value {
      s: ""
    }
  }
  attr {
    key: "dtype"
    value {
      type: DT_FLOAT
    }
  }
  attr {
    key: "shape"
    value {
      shape {
        dim {
          size: 32
        }
      }
    }
  }
  attr {
    key: "shared_name"
    value {
      s: ""
    }
  }
}
node {
  name: "MobileNet/conv_ds_2/dw_batch_norm/beta/Assign"
  op: "Assign"
  input: "MobileNet/conv_ds_2/dw_batch_norm/beta"
  input: "MobileNet/conv_ds_2/dw_batch_norm/beta/Initializer/zeros"
  attr {
    key: "T"
    value {
      type: DT_FLOAT
    }
  }
  attr {
    key: "_class"
    value {
      list {
        s: "loc:@MobileNet/conv_ds_2/dw_batch_norm/beta"
      }
    }
  }
  attr {
    key: "use_locking"
    value {
      b: true
    }
  }
  attr {
    key: "validate_shape"
    value {
      b: true
    }
  }
}
node {
  name: "MobileNet/conv_ds_2/dw_batch_norm/beta/read"
  op: "Identity"
  input: "MobileNet/conv_ds_2/dw_batch_norm/beta"
  attr {
    key: "T"
    value {
      type: DT_FLOAT
    }
  }
  attr {
    key: "_class"
    value {
      list {
        s: "loc:@MobileNet/conv_ds_2/dw_batch_norm/beta"
      }
    }
  }
}
node {
  name: "MobileNet/conv_ds_2/dw_batch_norm/moving_mean/Initializer/zeros"
  op: "Const"
  attr {
    key: "_class"
    value {
      list {
        s: "loc:@MobileNet/conv_ds_2/dw_batch_norm/moving_mean"
      }
    }
  }
  attr {
    key: "dtype"
    value {
      type: DT_FLOAT
    }
  }
  attr {
    key: "value"
    value {
      tensor {
        dtype: DT_FLOAT
        tensor_shape {
          dim {
            size: 32
          }
        }
        float_val: 0.0
      }
    }
  }
}
node {
  name: "MobileNet/conv_ds_2/dw_batch_norm/moving_mean"
  op: "VariableV2"
  attr {
    key: "_class"
    value {
      list {
        s: "loc:@MobileNet/conv_ds_2/dw_batch_norm/moving_mean"
      }
    }
  }
  attr {
    key: "container"
    value {
      s: ""
    }
  }
  attr {
    key: "dtype"
    value {
      type: DT_FLOAT
    }
  }
  attr {
    key: "shape"
    value {
      shape {
        dim {
          size: 32
        }
      }
    }
  }
  attr {
    key: "shared_name"
    value {
      s: ""
    }
  }
}
node {
  name: "MobileNet/conv_ds_2/dw_batch_norm/moving_mean/Assign"
  op: "Assign"
  input: "MobileNet/conv_ds_2/dw_batch_norm/moving_mean"
  input: "MobileNet/conv_ds_2/dw_batch_norm/moving_mean/Initializer/zeros"
  attr {
    key: "T"
    value {
      type: DT_FLOAT
    }
  }
  attr {
    key: "_class"
    value {
      list {
        s: "loc:@MobileNet/conv_ds_2/dw_batch_norm/moving_mean"
      }
    }
  }
  attr {
    key: "use_locking"
    value {
      b: true
    }
  }
  attr {
    key: "validate_shape"
    value {
      b: true
    }
  }
}
node {
  name: "MobileNet/conv_ds_2/dw_batch_norm/moving_mean/read"
  op: "Identity"
  input: "MobileNet/conv_ds_2/dw_batch_norm/moving_mean"
  attr {
    key: "T"
    value {
      type: DT_FLOAT
    }
  }
  attr {
    key: "_class"
    value {
      list {
        s: "loc:@MobileNet/conv_ds_2/dw_batch_norm/moving_mean"
      }
    }
  }
}
node {
  name: "MobileNet/conv_ds_2/dw_batch_norm/moving_variance/Initializer/ones"
  op: "Const"
  attr {
    key: "_class"
    value {
      list {
        s: "loc:@MobileNet/conv_ds_2/dw_batch_norm/moving_variance"
      }
    }
  }
  attr {
    key: "dtype"
    value {
      type: DT_FLOAT
    }
  }
  attr {
    key: "value"
    value {
      tensor {
        dtype: DT_FLOAT
        tensor_shape {
          dim {
            size: 32
          }
        }
        float_val: 1.0
      }
    }
  }
}
node {
  name: "MobileNet/conv_ds_2/dw_batch_norm/moving_variance"
  op: "VariableV2"
  attr {
    key: "_class"
    value {
      list {
        s: "loc:@MobileNet/conv_ds_2/dw_batch_norm/moving_variance"
      }
    }
  }
  attr {
    key: "container"
    value {
      s: ""
    }
  }
  attr {
    key: "dtype"
    value {
      type: DT_FLOAT
    }
  }
  attr {
    key: "shape"
    value {
      shape {
        dim {
          size: 32
        }
      }
    }
  }
  attr {
    key: "shared_name"
    value {
      s: ""
    }
  }
}
node {
  name: "MobileNet/conv_ds_2/dw_batch_norm/moving_variance/Assign"
  op: "Assign"
  input: "MobileNet/conv_ds_2/dw_batch_norm/moving_variance"
  input: "MobileNet/conv_ds_2/dw_batch_norm/moving_variance/Initializer/ones"
  attr {
    key: "T"
    value {
      type: DT_FLOAT
    }
  }
  attr {
    key: "_class"
    value {
      list {
        s: "loc:@MobileNet/conv_ds_2/dw_batch_norm/moving_variance"
      }
    }
  }
  attr {
    key: "use_locking"
    value {
      b: true
    }
  }
  attr {
    key: "validate_shape"
    value {
      b: true
    }
  }
}
node {
  name: "MobileNet/conv_ds_2/dw_batch_norm/moving_variance/read"
  op: "Identity"
  input: "MobileNet/conv_ds_2/dw_batch_norm/moving_variance"
  attr {
    key: "T"
    value {
      type: DT_FLOAT
    }
  }
  attr {
    key: "_class"
    value {
      list {
        s: "loc:@MobileNet/conv_ds_2/dw_batch_norm/moving_variance"
      }
    }
  }
}
node {
  name: "MobileNet/conv_ds_2/dw_batch_norm/Const_1"
  op: "Const"
  attr {
    key: "dtype"
    value {
      type: DT_FLOAT
    }
  }
  attr {
    key: "value"
    value {
      tensor {
        dtype: DT_FLOAT
        tensor_shape {
          dim {
          }
        }
      }
    }
  }
}
node {
  name: "MobileNet/conv_ds_2/dw_batch_norm/Const_2"
  op: "Const"
  attr {
    key: "dtype"
    value {
      type: DT_FLOAT
    }
  }
  attr {
    key: "value"
    value {
      tensor {
        dtype: DT_FLOAT
        tensor_shape {
          dim {
          }
        }
      }
    }
  }
}
node {
  name: "MobileNet/conv_ds_2/dw_batch_norm/FusedBatchNorm"
  op: "FusedBatchNorm"
  input: "MobileNet/conv_ds_2/depthwise_conv/BiasAdd"
  input: "MobileNet/conv_ds_2/dw_batch_norm/Const"
  input: "MobileNet/conv_ds_2/dw_batch_norm/beta/read"
  input: "MobileNet/conv_ds_2/dw_batch_norm/Const_1"
  input: "MobileNet/conv_ds_2/dw_batch_norm/Const_2"
  attr {
    key: "T"
    value {
      type: DT_FLOAT
    }
  }
  attr {
    key: "data_format"
    value {
      s: "NHWC"
    }
  }
  attr {
    key: "epsilon"
    value {
      f: 0.0010000000474974513
    }
  }
  attr {
    key: "is_training"
    value {
      b: true
    }
  }
}
node {
  name: "MobileNet/conv_ds_2/dw_batch_norm/Const_3"
  op: "Const"
  attr {
    key: "dtype"
    value {
      type: DT_FLOAT
    }
  }
  attr {
    key: "value"
    value {
      tensor {
        dtype: DT_FLOAT
        tensor_shape {
        }
        float_val: 0.0010000000474974513
      }
    }
  }
}
node {
  name: "MobileNet/conv_ds_2/dw_batch_norm/AssignMovingAvg/read"
  op: "Identity"
  input: "MobileNet/conv_ds_2/dw_batch_norm/moving_mean"
  attr {
    key: "T"
    value {
      type: DT_FLOAT
    }
  }
  attr {
    key: "_class"
    value {
      list {
        s: "loc:@MobileNet/conv_ds_2/dw_batch_norm/moving_mean"
      }
    }
  }
}
node {
  name: "MobileNet/conv_ds_2/dw_batch_norm/AssignMovingAvg/Sub"
  op: "Sub"
  input: "MobileNet/conv_ds_2/dw_batch_norm/AssignMovingAvg/read"
  input: "MobileNet/conv_ds_2/dw_batch_norm/FusedBatchNorm:1"
  attr {
    key: "T"
    value {
      type: DT_FLOAT
    }
  }
  attr {
    key: "_class"
    value {
      list {
        s: "loc:@MobileNet/conv_ds_2/dw_batch_norm/moving_mean"
      }
    }
  }
}
node {
  name: "MobileNet/conv_ds_2/dw_batch_norm/AssignMovingAvg/Mul"
  op: "Mul"
  input: "MobileNet/conv_ds_2/dw_batch_norm/AssignMovingAvg/Sub"
  input: "MobileNet/conv_ds_2/dw_batch_norm/Const_3"
  attr {
    key: "T"
    value {
      type: DT_FLOAT
    }
  }
  attr {
    key: "_class"
    value {
      list {
        s: "loc:@MobileNet/conv_ds_2/dw_batch_norm/moving_mean"
      }
    }
  }
}
node {
  name: "MobileNet/conv_ds_2/dw_batch_norm/AssignMovingAvg"
  op: "AssignSub"
  input: "MobileNet/conv_ds_2/dw_batch_norm/moving_mean"
  input: "MobileNet/conv_ds_2/dw_batch_norm/AssignMovingAvg/Mul"
  attr {
    key: "T"
    value {
      type: DT_FLOAT
    }
  }
  attr {
    key: "_class"
    value {
      list {
        s: "loc:@MobileNet/conv_ds_2/dw_batch_norm/moving_mean"
      }
    }
  }
  attr {
    key: "use_locking"
    value {
      b: false
    }
  }
}
node {
  name: "MobileNet/conv_ds_2/dw_batch_norm/AssignMovingAvg_1/read"
  op: "Identity"
  input: "MobileNet/conv_ds_2/dw_batch_norm/moving_variance"
  attr {
    key: "T"
    value {
      type: DT_FLOAT
    }
  }
  attr {
    key: "_class"
    value {
      list {
        s: "loc:@MobileNet/conv_ds_2/dw_batch_norm/moving_variance"
      }
    }
  }
}
node {
  name: "MobileNet/conv_ds_2/dw_batch_norm/AssignMovingAvg_1/Sub"
  op: "Sub"
  input: "MobileNet/conv_ds_2/dw_batch_norm/AssignMovingAvg_1/read"
  input: "MobileNet/conv_ds_2/dw_batch_norm/FusedBatchNorm:2"
  attr {
    key: "T"
    value {
      type: DT_FLOAT
    }
  }
  attr {
    key: "_class"
    value {
      list {
        s: "loc:@MobileNet/conv_ds_2/dw_batch_norm/moving_variance"
      }
    }
  }
}
node {
  name: "MobileNet/conv_ds_2/dw_batch_norm/AssignMovingAvg_1/Mul"
  op: "Mul"
  input: "MobileNet/conv_ds_2/dw_batch_norm/AssignMovingAvg_1/Sub"
  input: "MobileNet/conv_ds_2/dw_batch_norm/Const_3"
  attr {
    key: "T"
    value {
      type: DT_FLOAT
    }
  }
  attr {
    key: "_class"
    value {
      list {
        s: "loc:@MobileNet/conv_ds_2/dw_batch_norm/moving_variance"
      }
    }
  }
}
node {
  name: "MobileNet/conv_ds_2/dw_batch_norm/AssignMovingAvg_1"
  op: "AssignSub"
  input: "MobileNet/conv_ds_2/dw_batch_norm/moving_variance"
  input: "MobileNet/conv_ds_2/dw_batch_norm/AssignMovingAvg_1/Mul"
  attr {
    key: "T"
    value {
      type: DT_FLOAT
    }
  }
  attr {
    key: "_class"
    value {
      list {
        s: "loc:@MobileNet/conv_ds_2/dw_batch_norm/moving_variance"
      }
    }
  }
  attr {
    key: "use_locking"
    value {
      b: false
    }
  }
}
node {
  name: "MobileNet/conv_ds_2/dw_batch_norm/Relu"
  op: "Relu"
  input: "MobileNet/conv_ds_2/dw_batch_norm/FusedBatchNorm"
  attr {
    key: "T"
    value {
      type: DT_FLOAT
    }
  }
}
node {
  name: "MobileNet/conv_ds_2/pointwise_conv/weights/Initializer/random_uniform/shape"
  op: "Const"
  attr {
    key: "_class"
    value {
      list {
        s: "loc:@MobileNet/conv_ds_2/pointwise_conv/weights"
      }
    }
  }
  attr {
    key: "dtype"
    value {
      type: DT_INT32
    }
  }
  attr {
    key: "value"
    value {
      tensor {
        dtype: DT_INT32
        tensor_shape {
          dim {
            size: 4
          }
        }
        tensor_content: "\001\000\000\000\001\000\000\000 \000\000\000@\000\000\000"
      }
    }
  }
}
node {
  name: "MobileNet/conv_ds_2/pointwise_conv/weights/Initializer/random_uniform/min"
  op: "Const"
  attr {
    key: "_class"
    value {
      list {
        s: "loc:@MobileNet/conv_ds_2/pointwise_conv/weights"
      }
    }
  }
  attr {
    key: "dtype"
    value {
      type: DT_FLOAT
    }
  }
  attr {
    key: "value"
    value {
      tensor {
        dtype: DT_FLOAT
        tensor_shape {
        }
        float_val: -0.25
      }
    }
  }
}
node {
  name: "MobileNet/conv_ds_2/pointwise_conv/weights/Initializer/random_uniform/max"
  op: "Const"
  attr {
    key: "_class"
    value {
      list {
        s: "loc:@MobileNet/conv_ds_2/pointwise_conv/weights"
      }
    }
  }
  attr {
    key: "dtype"
    value {
      type: DT_FLOAT
    }
  }
  attr {
    key: "value"
    value {
      tensor {
        dtype: DT_FLOAT
        tensor_shape {
        }
        float_val: 0.25
      }
    }
  }
}
node {
  name: "MobileNet/conv_ds_2/pointwise_conv/weights/Initializer/random_uniform/RandomUniform"
  op: "RandomUniform"
  input: "MobileNet/conv_ds_2/pointwise_conv/weights/Initializer/random_uniform/shape"
  attr {
    key: "T"
    value {
      type: DT_INT32
    }
  }
  attr {
    key: "_class"
    value {
      list {
        s: "loc:@MobileNet/conv_ds_2/pointwise_conv/weights"
      }
    }
  }
  attr {
    key: "dtype"
    value {
      type: DT_FLOAT
    }
  }
  attr {
    key: "seed"
    value {
      i: 0
    }
  }
  attr {
    key: "seed2"
    value {
      i: 0
    }
  }
}
node {
  name: "MobileNet/conv_ds_2/pointwise_conv/weights/Initializer/random_uniform/sub"
  op: "Sub"
  input: "MobileNet/conv_ds_2/pointwise_conv/weights/Initializer/random_uniform/max"
  input: "MobileNet/conv_ds_2/pointwise_conv/weights/Initializer/random_uniform/min"
  attr {
    key: "T"
    value {
      type: DT_FLOAT
    }
  }
  attr {
    key: "_class"
    value {
      list {
        s: "loc:@MobileNet/conv_ds_2/pointwise_conv/weights"
      }
    }
  }
}
node {
  name: "MobileNet/conv_ds_2/pointwise_conv/weights/Initializer/random_uniform/mul"
  op: "Mul"
  input: "MobileNet/conv_ds_2/pointwise_conv/weights/Initializer/random_uniform/RandomUniform"
  input: "MobileNet/conv_ds_2/pointwise_conv/weights/Initializer/random_uniform/sub"
  attr {
    key: "T"
    value {
      type: DT_FLOAT
    }
  }
  attr {
    key: "_class"
    value {
      list {
        s: "loc:@MobileNet/conv_ds_2/pointwise_conv/weights"
      }
    }
  }
}
node {
  name: "MobileNet/conv_ds_2/pointwise_conv/weights/Initializer/random_uniform"
  op: "Add"
  input: "MobileNet/conv_ds_2/pointwise_conv/weights/Initializer/random_uniform/mul"
  input: "MobileNet/conv_ds_2/pointwise_conv/weights/Initializer/random_uniform/min"
  attr {
    key: "T"
    value {
      type: DT_FLOAT
    }
  }
  attr {
    key: "_class"
    value {
      list {
        s: "loc:@MobileNet/conv_ds_2/pointwise_conv/weights"
      }
    }
  }
}
node {
  name: "MobileNet/conv_ds_2/pointwise_conv/weights"
  op: "VariableV2"
  attr {
    key: "_class"
    value {
      list {
        s: "loc:@MobileNet/conv_ds_2/pointwise_conv/weights"
      }
    }
  }
  attr {
    key: "container"
    value {
      s: ""
    }
  }
  attr {
    key: "dtype"
    value {
      type: DT_FLOAT
    }
  }
  attr {
    key: "shape"
    value {
      shape {
        dim {
          size: 1
        }
        dim {
          size: 1
        }
        dim {
          size: 32
        }
        dim {
          size: 64
        }
      }
    }
  }
  attr {
    key: "shared_name"
    value {
      s: ""
    }
  }
}
node {
  name: "MobileNet/conv_ds_2/pointwise_conv/weights/Assign"
  op: "Assign"
  input: "MobileNet/conv_ds_2/pointwise_conv/weights"
  input: "MobileNet/conv_ds_2/pointwise_conv/weights/Initializer/random_uniform"
  attr {
    key: "T"
    value {
      type: DT_FLOAT
    }
  }
  attr {
    key: "_class"
    value {
      list {
        s: "loc:@MobileNet/conv_ds_2/pointwise_conv/weights"
      }
    }
  }
  attr {
    key: "use_locking"
    value {
      b: true
    }
  }
  attr {
    key: "validate_shape"
    value {
      b: true
    }
  }
}
node {
  name: "MobileNet/conv_ds_2/pointwise_conv/weights/read"
  op: "Identity"
  input: "MobileNet/conv_ds_2/pointwise_conv/weights"
  attr {
    key: "T"
    value {
      type: DT_FLOAT
    }
  }
  attr {
    key: "_class"
    value {
      list {
        s: "loc:@MobileNet/conv_ds_2/pointwise_conv/weights"
      }
    }
  }
}
node {
  name: "MobileNet/conv_ds_2/pointwise_conv/biases/Initializer/zeros"
  op: "Const"
  attr {
    key: "_class"
    value {
      list {
        s: "loc:@MobileNet/conv_ds_2/pointwise_conv/biases"
      }
    }
  }
  attr {
    key: "dtype"
    value {
      type: DT_FLOAT
    }
  }
  attr {
    key: "value"
    value {
      tensor {
        dtype: DT_FLOAT
        tensor_shape {
          dim {
            size: 64
          }
        }
        float_val: 0.0
      }
    }
  }
}
node {
  name: "MobileNet/conv_ds_2/pointwise_conv/biases"
  op: "VariableV2"
  attr {
    key: "_class"
    value {
      list {
        s: "loc:@MobileNet/conv_ds_2/pointwise_conv/biases"
      }
    }
  }
  attr {
    key: "container"
    value {
      s: ""
    }
  }
  attr {
    key: "dtype"
    value {
      type: DT_FLOAT
    }
  }
  attr {
    key: "shape"
    value {
      shape {
        dim {
          size: 64
        }
      }
    }
  }
  attr {
    key: "shared_name"
    value {
      s: ""
    }
  }
}
node {
  name: "MobileNet/conv_ds_2/pointwise_conv/biases/Assign"
  op: "Assign"
  input: "MobileNet/conv_ds_2/pointwise_conv/biases"
  input: "MobileNet/conv_ds_2/pointwise_conv/biases/Initializer/zeros"
  attr {
    key: "T"
    value {
      type: DT_FLOAT
    }
  }
  attr {
    key: "_class"
    value {
      list {
        s: "loc:@MobileNet/conv_ds_2/pointwise_conv/biases"
      }
    }
  }
  attr {
    key: "use_locking"
    value {
      b: true
    }
  }
  attr {
    key: "validate_shape"
    value {
      b: true
    }
  }
}
node {
  name: "MobileNet/conv_ds_2/pointwise_conv/biases/read"
  op: "Identity"
  input: "MobileNet/conv_ds_2/pointwise_conv/biases"
  attr {
    key: "T"
    value {
      type: DT_FLOAT
    }
  }
  attr {
    key: "_class"
    value {
      list {
        s: "loc:@MobileNet/conv_ds_2/pointwise_conv/biases"
      }
    }
  }
}
node {
  name: "MobileNet/conv_ds_2/pointwise_conv/dilation_rate"
  op: "Const"
  attr {
    key: "dtype"
    value {
      type: DT_INT32
    }
  }
  attr {
    key: "value"
    value {
      tensor {
        dtype: DT_INT32
        tensor_shape {
          dim {
            size: 2
          }
        }
        tensor_content: "\001\000\000\000\001\000\000\000"
      }
    }
  }
}
node {
  name: "MobileNet/conv_ds_2/pointwise_conv/Conv2D"
  op: "Conv2D"
  input: "MobileNet/conv_ds_2/dw_batch_norm/Relu"
  input: "MobileNet/conv_ds_2/pointwise_conv/weights/read"
  attr {
    key: "T"
    value {
      type: DT_FLOAT
    }
  }
  attr {
    key: "data_format"
    value {
      s: "NHWC"
    }
  }
  attr {
    key: "padding"
    value {
      s: "SAME"
    }
  }
  attr {
    key: "strides"
    value {
      list {
        i: 1
        i: 1
        i: 1
        i: 1
      }
    }
  }
  attr {
    key: "use_cudnn_on_gpu"
    value {
      b: true
    }
  }
}
node {
  name: "MobileNet/conv_ds_2/pointwise_conv/BiasAdd"
  op: "BiasAdd"
  input: "MobileNet/conv_ds_2/pointwise_conv/Conv2D"
  input: "MobileNet/conv_ds_2/pointwise_conv/biases/read"
  attr {
    key: "T"
    value {
      type: DT_FLOAT
    }
  }
  attr {
    key: "data_format"
    value {
      s: "NHWC"
    }
  }
}
node {
  name: "MobileNet/conv_ds_2/pw_batch_norm/Const"
  op: "Const"
  attr {
    key: "dtype"
    value {
      type: DT_FLOAT
    }
  }
  attr {
    key: "value"
    value {
      tensor {
        dtype: DT_FLOAT
        tensor_shape {
          dim {
            size: 64
          }
        }
        float_val: 1.0
      }
    }
  }
}
node {
  name: "MobileNet/conv_ds_2/pw_batch_norm/beta/Initializer/zeros"
  op: "Const"
  attr {
    key: "_class"
    value {
      list {
        s: "loc:@MobileNet/conv_ds_2/pw_batch_norm/beta"
      }
    }
  }
  attr {
    key: "dtype"
    value {
      type: DT_FLOAT
    }
  }
  attr {
    key: "value"
    value {
      tensor {
        dtype: DT_FLOAT
        tensor_shape {
          dim {
            size: 64
          }
        }
        float_val: 0.0
      }
    }
  }
}
node {
  name: "MobileNet/conv_ds_2/pw_batch_norm/beta"
  op: "VariableV2"
  attr {
    key: "_class"
    value {
      list {
        s: "loc:@MobileNet/conv_ds_2/pw_batch_norm/beta"
      }
    }
  }
  attr {
    key: "container"
    value {
      s: ""
    }
  }
  attr {
    key: "dtype"
    value {
      type: DT_FLOAT
    }
  }
  attr {
    key: "shape"
    value {
      shape {
        dim {
          size: 64
        }
      }
    }
  }
  attr {
    key: "shared_name"
    value {
      s: ""
    }
  }
}
node {
  name: "MobileNet/conv_ds_2/pw_batch_norm/beta/Assign"
  op: "Assign"
  input: "MobileNet/conv_ds_2/pw_batch_norm/beta"
  input: "MobileNet/conv_ds_2/pw_batch_norm/beta/Initializer/zeros"
  attr {
    key: "T"
    value {
      type: DT_FLOAT
    }
  }
  attr {
    key: "_class"
    value {
      list {
        s: "loc:@MobileNet/conv_ds_2/pw_batch_norm/beta"
      }
    }
  }
  attr {
    key: "use_locking"
    value {
      b: true
    }
  }
  attr {
    key: "validate_shape"
    value {
      b: true
    }
  }
}
node {
  name: "MobileNet/conv_ds_2/pw_batch_norm/beta/read"
  op: "Identity"
  input: "MobileNet/conv_ds_2/pw_batch_norm/beta"
  attr {
    key: "T"
    value {
      type: DT_FLOAT
    }
  }
  attr {
    key: "_class"
    value {
      list {
        s: "loc:@MobileNet/conv_ds_2/pw_batch_norm/beta"
      }
    }
  }
}
node {
  name: "MobileNet/conv_ds_2/pw_batch_norm/moving_mean/Initializer/zeros"
  op: "Const"
  attr {
    key: "_class"
    value {
      list {
        s: "loc:@MobileNet/conv_ds_2/pw_batch_norm/moving_mean"
      }
    }
  }
  attr {
    key: "dtype"
    value {
      type: DT_FLOAT
    }
  }
  attr {
    key: "value"
    value {
      tensor {
        dtype: DT_FLOAT
        tensor_shape {
          dim {
            size: 64
          }
        }
        float_val: 0.0
      }
    }
  }
}
node {
  name: "MobileNet/conv_ds_2/pw_batch_norm/moving_mean"
  op: "VariableV2"
  attr {
    key: "_class"
    value {
      list {
        s: "loc:@MobileNet/conv_ds_2/pw_batch_norm/moving_mean"
      }
    }
  }
  attr {
    key: "container"
    value {
      s: ""
    }
  }
  attr {
    key: "dtype"
    value {
      type: DT_FLOAT
    }
  }
  attr {
    key: "shape"
    value {
      shape {
        dim {
          size: 64
        }
      }
    }
  }
  attr {
    key: "shared_name"
    value {
      s: ""
    }
  }
}
node {
  name: "MobileNet/conv_ds_2/pw_batch_norm/moving_mean/Assign"
  op: "Assign"
  input: "MobileNet/conv_ds_2/pw_batch_norm/moving_mean"
  input: "MobileNet/conv_ds_2/pw_batch_norm/moving_mean/Initializer/zeros"
  attr {
    key: "T"
    value {
      type: DT_FLOAT
    }
  }
  attr {
    key: "_class"
    value {
      list {
        s: "loc:@MobileNet/conv_ds_2/pw_batch_norm/moving_mean"
      }
    }
  }
  attr {
    key: "use_locking"
    value {
      b: true
    }
  }
  attr {
    key: "validate_shape"
    value {
      b: true
    }
  }
}
node {
  name: "MobileNet/conv_ds_2/pw_batch_norm/moving_mean/read"
  op: "Identity"
  input: "MobileNet/conv_ds_2/pw_batch_norm/moving_mean"
  attr {
    key: "T"
    value {
      type: DT_FLOAT
    }
  }
  attr {
    key: "_class"
    value {
      list {
        s: "loc:@MobileNet/conv_ds_2/pw_batch_norm/moving_mean"
      }
    }
  }
}
node {
  name: "MobileNet/conv_ds_2/pw_batch_norm/moving_variance/Initializer/ones"
  op: "Const"
  attr {
    key: "_class"
    value {
      list {
        s: "loc:@MobileNet/conv_ds_2/pw_batch_norm/moving_variance"
      }
    }
  }
  attr {
    key: "dtype"
    value {
      type: DT_FLOAT
    }
  }
  attr {
    key: "value"
    value {
      tensor {
        dtype: DT_FLOAT
        tensor_shape {
          dim {
            size: 64
          }
        }
        float_val: 1.0
      }
    }
  }
}
node {
  name: "MobileNet/conv_ds_2/pw_batch_norm/moving_variance"
  op: "VariableV2"
  attr {
    key: "_class"
    value {
      list {
        s: "loc:@MobileNet/conv_ds_2/pw_batch_norm/moving_variance"
      }
    }
  }
  attr {
    key: "container"
    value {
      s: ""
    }
  }
  attr {
    key: "dtype"
    value {
      type: DT_FLOAT
    }
  }
  attr {
    key: "shape"
    value {
      shape {
        dim {
          size: 64
        }
      }
    }
  }
  attr {
    key: "shared_name"
    value {
      s: ""
    }
  }
}
node {
  name: "MobileNet/conv_ds_2/pw_batch_norm/moving_variance/Assign"
  op: "Assign"
  input: "MobileNet/conv_ds_2/pw_batch_norm/moving_variance"
  input: "MobileNet/conv_ds_2/pw_batch_norm/moving_variance/Initializer/ones"
  attr {
    key: "T"
    value {
      type: DT_FLOAT
    }
  }
  attr {
    key: "_class"
    value {
      list {
        s: "loc:@MobileNet/conv_ds_2/pw_batch_norm/moving_variance"
      }
    }
  }
  attr {
    key: "use_locking"
    value {
      b: true
    }
  }
  attr {
    key: "validate_shape"
    value {
      b: true
    }
  }
}
node {
  name: "MobileNet/conv_ds_2/pw_batch_norm/moving_variance/read"
  op: "Identity"
  input: "MobileNet/conv_ds_2/pw_batch_norm/moving_variance"
  attr {
    key: "T"
    value {
      type: DT_FLOAT
    }
  }
  attr {
    key: "_class"
    value {
      list {
        s: "loc:@MobileNet/conv_ds_2/pw_batch_norm/moving_variance"
      }
    }
  }
}
node {
  name: "MobileNet/conv_ds_2/pw_batch_norm/Const_1"
  op: "Const"
  attr {
    key: "dtype"
    value {
      type: DT_FLOAT
    }
  }
  attr {
    key: "value"
    value {
      tensor {
        dtype: DT_FLOAT
        tensor_shape {
          dim {
          }
        }
      }
    }
  }
}
node {
  name: "MobileNet/conv_ds_2/pw_batch_norm/Const_2"
  op: "Const"
  attr {
    key: "dtype"
    value {
      type: DT_FLOAT
    }
  }
  attr {
    key: "value"
    value {
      tensor {
        dtype: DT_FLOAT
        tensor_shape {
          dim {
          }
        }
      }
    }
  }
}
node {
  name: "MobileNet/conv_ds_2/pw_batch_norm/FusedBatchNorm"
  op: "FusedBatchNorm"
  input: "MobileNet/conv_ds_2/pointwise_conv/BiasAdd"
  input: "MobileNet/conv_ds_2/pw_batch_norm/Const"
  input: "MobileNet/conv_ds_2/pw_batch_norm/beta/read"
  input: "MobileNet/conv_ds_2/pw_batch_norm/Const_1"
  input: "MobileNet/conv_ds_2/pw_batch_norm/Const_2"
  attr {
    key: "T"
    value {
      type: DT_FLOAT
    }
  }
  attr {
    key: "data_format"
    value {
      s: "NHWC"
    }
  }
  attr {
    key: "epsilon"
    value {
      f: 0.0010000000474974513
    }
  }
  attr {
    key: "is_training"
    value {
      b: true
    }
  }
}
node {
  name: "MobileNet/conv_ds_2/pw_batch_norm/Const_3"
  op: "Const"
  attr {
    key: "dtype"
    value {
      type: DT_FLOAT
    }
  }
  attr {
    key: "value"
    value {
      tensor {
        dtype: DT_FLOAT
        tensor_shape {
        }
        float_val: 0.0010000000474974513
      }
    }
  }
}
node {
  name: "MobileNet/conv_ds_2/pw_batch_norm/AssignMovingAvg/read"
  op: "Identity"
  input: "MobileNet/conv_ds_2/pw_batch_norm/moving_mean"
  attr {
    key: "T"
    value {
      type: DT_FLOAT
    }
  }
  attr {
    key: "_class"
    value {
      list {
        s: "loc:@MobileNet/conv_ds_2/pw_batch_norm/moving_mean"
      }
    }
  }
}
node {
  name: "MobileNet/conv_ds_2/pw_batch_norm/AssignMovingAvg/Sub"
  op: "Sub"
  input: "MobileNet/conv_ds_2/pw_batch_norm/AssignMovingAvg/read"
  input: "MobileNet/conv_ds_2/pw_batch_norm/FusedBatchNorm:1"
  attr {
    key: "T"
    value {
      type: DT_FLOAT
    }
  }
  attr {
    key: "_class"
    value {
      list {
        s: "loc:@MobileNet/conv_ds_2/pw_batch_norm/moving_mean"
      }
    }
  }
}
node {
  name: "MobileNet/conv_ds_2/pw_batch_norm/AssignMovingAvg/Mul"
  op: "Mul"
  input: "MobileNet/conv_ds_2/pw_batch_norm/AssignMovingAvg/Sub"
  input: "MobileNet/conv_ds_2/pw_batch_norm/Const_3"
  attr {
    key: "T"
    value {
      type: DT_FLOAT
    }
  }
  attr {
    key: "_class"
    value {
      list {
        s: "loc:@MobileNet/conv_ds_2/pw_batch_norm/moving_mean"
      }
    }
  }
}
node {
  name: "MobileNet/conv_ds_2/pw_batch_norm/AssignMovingAvg"
  op: "AssignSub"
  input: "MobileNet/conv_ds_2/pw_batch_norm/moving_mean"
  input: "MobileNet/conv_ds_2/pw_batch_norm/AssignMovingAvg/Mul"
  attr {
    key: "T"
    value {
      type: DT_FLOAT
    }
  }
  attr {
    key: "_class"
    value {
      list {
        s: "loc:@MobileNet/conv_ds_2/pw_batch_norm/moving_mean"
      }
    }
  }
  attr {
    key: "use_locking"
    value {
      b: false
    }
  }
}
node {
  name: "MobileNet/conv_ds_2/pw_batch_norm/AssignMovingAvg_1/read"
  op: "Identity"
  input: "MobileNet/conv_ds_2/pw_batch_norm/moving_variance"
  attr {
    key: "T"
    value {
      type: DT_FLOAT
    }
  }
  attr {
    key: "_class"
    value {
      list {
        s: "loc:@MobileNet/conv_ds_2/pw_batch_norm/moving_variance"
      }
    }
  }
}
node {
  name: "MobileNet/conv_ds_2/pw_batch_norm/AssignMovingAvg_1/Sub"
  op: "Sub"
  input: "MobileNet/conv_ds_2/pw_batch_norm/AssignMovingAvg_1/read"
  input: "MobileNet/conv_ds_2/pw_batch_norm/FusedBatchNorm:2"
  attr {
    key: "T"
    value {
      type: DT_FLOAT
    }
  }
  attr {
    key: "_class"
    value {
      list {
        s: "loc:@MobileNet/conv_ds_2/pw_batch_norm/moving_variance"
      }
    }
  }
}
node {
  name: "MobileNet/conv_ds_2/pw_batch_norm/AssignMovingAvg_1/Mul"
  op: "Mul"
  input: "MobileNet/conv_ds_2/pw_batch_norm/AssignMovingAvg_1/Sub"
  input: "MobileNet/conv_ds_2/pw_batch_norm/Const_3"
  attr {
    key: "T"
    value {
      type: DT_FLOAT
    }
  }
  attr {
    key: "_class"
    value {
      list {
        s: "loc:@MobileNet/conv_ds_2/pw_batch_norm/moving_variance"
      }
    }
  }
}
node {
  name: "MobileNet/conv_ds_2/pw_batch_norm/AssignMovingAvg_1"
  op: "AssignSub"
  input: "MobileNet/conv_ds_2/pw_batch_norm/moving_variance"
  input: "MobileNet/conv_ds_2/pw_batch_norm/AssignMovingAvg_1/Mul"
  attr {
    key: "T"
    value {
      type: DT_FLOAT
    }
  }
  attr {
    key: "_class"
    value {
      list {
        s: "loc:@MobileNet/conv_ds_2/pw_batch_norm/moving_variance"
      }
    }
  }
  attr {
    key: "use_locking"
    value {
      b: false
    }
  }
}
node {
  name: "MobileNet/conv_ds_2/pw_batch_norm/Relu"
  op: "Relu"
  input: "MobileNet/conv_ds_2/pw_batch_norm/FusedBatchNorm"
  attr {
    key: "T"
    value {
      type: DT_FLOAT
    }
  }
}
node {
  name: "MobileNet/conv_ds_3/depthwise_conv/depthwise_weights/Initializer/random_uniform/shape"
  op: "Const"
  attr {
    key: "_class"
    value {
      list {
        s: "loc:@MobileNet/conv_ds_3/depthwise_conv/depthwise_weights"
      }
    }
  }
  attr {
    key: "dtype"
    value {
      type: DT_INT32
    }
  }
  attr {
    key: "value"
    value {
      tensor {
        dtype: DT_INT32
        tensor_shape {
          dim {
            size: 4
          }
        }
        tensor_content: "\003\000\000\000\003\000\000\000@\000\000\000\001\000\000\000"
      }
    }
  }
}
node {
  name: "MobileNet/conv_ds_3/depthwise_conv/depthwise_weights/Initializer/random_uniform/min"
  op: "Const"
  attr {
    key: "_class"
    value {
      list {
        s: "loc:@MobileNet/conv_ds_3/depthwise_conv/depthwise_weights"
      }
    }
  }
  attr {
    key: "dtype"
    value {
      type: DT_FLOAT
    }
  }
  attr {
    key: "value"
    value {
      tensor {
        dtype: DT_FLOAT
        tensor_shape {
        }
        float_val: -0.10127393901348114
      }
    }
  }
}
node {
  name: "MobileNet/conv_ds_3/depthwise_conv/depthwise_weights/Initializer/random_uniform/max"
  op: "Const"
  attr {
    key: "_class"
    value {
      list {
        s: "loc:@MobileNet/conv_ds_3/depthwise_conv/depthwise_weights"
      }
    }
  }
  attr {
    key: "dtype"
    value {
      type: DT_FLOAT
    }
  }
  attr {
    key: "value"
    value {
      tensor {
        dtype: DT_FLOAT
        tensor_shape {
        }
        float_val: 0.10127393901348114
      }
    }
  }
}
node {
  name: "MobileNet/conv_ds_3/depthwise_conv/depthwise_weights/Initializer/random_uniform/RandomUniform"
  op: "RandomUniform"
  input: "MobileNet/conv_ds_3/depthwise_conv/depthwise_weights/Initializer/random_uniform/shape"
  attr {
    key: "T"
    value {
      type: DT_INT32
    }
  }
  attr {
    key: "_class"
    value {
      list {
        s: "loc:@MobileNet/conv_ds_3/depthwise_conv/depthwise_weights"
      }
    }
  }
  attr {
    key: "dtype"
    value {
      type: DT_FLOAT
    }
  }
  attr {
    key: "seed"
    value {
      i: 0
    }
  }
  attr {
    key: "seed2"
    value {
      i: 0
    }
  }
}
node {
  name: "MobileNet/conv_ds_3/depthwise_conv/depthwise_weights/Initializer/random_uniform/sub"
  op: "Sub"
  input: "MobileNet/conv_ds_3/depthwise_conv/depthwise_weights/Initializer/random_uniform/max"
  input: "MobileNet/conv_ds_3/depthwise_conv/depthwise_weights/Initializer/random_uniform/min"
  attr {
    key: "T"
    value {
      type: DT_FLOAT
    }
  }
  attr {
    key: "_class"
    value {
      list {
        s: "loc:@MobileNet/conv_ds_3/depthwise_conv/depthwise_weights"
      }
    }
  }
}
node {
  name: "MobileNet/conv_ds_3/depthwise_conv/depthwise_weights/Initializer/random_uniform/mul"
  op: "Mul"
  input: "MobileNet/conv_ds_3/depthwise_conv/depthwise_weights/Initializer/random_uniform/RandomUniform"
  input: "MobileNet/conv_ds_3/depthwise_conv/depthwise_weights/Initializer/random_uniform/sub"
  attr {
    key: "T"
    value {
      type: DT_FLOAT
    }
  }
  attr {
    key: "_class"
    value {
      list {
        s: "loc:@MobileNet/conv_ds_3/depthwise_conv/depthwise_weights"
      }
    }
  }
}
node {
  name: "MobileNet/conv_ds_3/depthwise_conv/depthwise_weights/Initializer/random_uniform"
  op: "Add"
  input: "MobileNet/conv_ds_3/depthwise_conv/depthwise_weights/Initializer/random_uniform/mul"
  input: "MobileNet/conv_ds_3/depthwise_conv/depthwise_weights/Initializer/random_uniform/min"
  attr {
    key: "T"
    value {
      type: DT_FLOAT
    }
  }
  attr {
    key: "_class"
    value {
      list {
        s: "loc:@MobileNet/conv_ds_3/depthwise_conv/depthwise_weights"
      }
    }
  }
}
node {
  name: "MobileNet/conv_ds_3/depthwise_conv/depthwise_weights"
  op: "VariableV2"
  attr {
    key: "_class"
    value {
      list {
        s: "loc:@MobileNet/conv_ds_3/depthwise_conv/depthwise_weights"
      }
    }
  }
  attr {
    key: "container"
    value {
      s: ""
    }
  }
  attr {
    key: "dtype"
    value {
      type: DT_FLOAT
    }
  }
  attr {
    key: "shape"
    value {
      shape {
        dim {
          size: 3
        }
        dim {
          size: 3
        }
        dim {
          size: 64
        }
        dim {
          size: 1
        }
      }
    }
  }
  attr {
    key: "shared_name"
    value {
      s: ""
    }
  }
}
node {
  name: "MobileNet/conv_ds_3/depthwise_conv/depthwise_weights/Assign"
  op: "Assign"
  input: "MobileNet/conv_ds_3/depthwise_conv/depthwise_weights"
  input: "MobileNet/conv_ds_3/depthwise_conv/depthwise_weights/Initializer/random_uniform"
  attr {
    key: "T"
    value {
      type: DT_FLOAT
    }
  }
  attr {
    key: "_class"
    value {
      list {
        s: "loc:@MobileNet/conv_ds_3/depthwise_conv/depthwise_weights"
      }
    }
  }
  attr {
    key: "use_locking"
    value {
      b: true
    }
  }
  attr {
    key: "validate_shape"
    value {
      b: true
    }
  }
}
node {
  name: "MobileNet/conv_ds_3/depthwise_conv/depthwise_weights/read"
  op: "Identity"
  input: "MobileNet/conv_ds_3/depthwise_conv/depthwise_weights"
  attr {
    key: "T"
    value {
      type: DT_FLOAT
    }
  }
  attr {
    key: "_class"
    value {
      list {
        s: "loc:@MobileNet/conv_ds_3/depthwise_conv/depthwise_weights"
      }
    }
  }
}
node {
  name: "MobileNet/conv_ds_3/depthwise_conv/depthwise/Shape"
  op: "Const"
  attr {
    key: "dtype"
    value {
      type: DT_INT32
    }
  }
  attr {
    key: "value"
    value {
      tensor {
        dtype: DT_INT32
        tensor_shape {
          dim {
            size: 4
          }
        }
        tensor_content: "\003\000\000\000\003\000\000\000@\000\000\000\001\000\000\000"
      }
    }
  }
}
node {
  name: "MobileNet/conv_ds_3/depthwise_conv/depthwise/dilation_rate"
  op: "Const"
  attr {
    key: "dtype"
    value {
      type: DT_INT32
    }
  }
  attr {
    key: "value"
    value {
      tensor {
        dtype: DT_INT32
        tensor_shape {
          dim {
            size: 2
          }
        }
        tensor_content: "\001\000\000\000\001\000\000\000"
      }
    }
  }
}
node {
  name: "MobileNet/conv_ds_3/depthwise_conv/depthwise"
  op: "DepthwiseConv2dNative"
  input: "MobileNet/conv_ds_2/pw_batch_norm/Relu"
  input: "MobileNet/conv_ds_3/depthwise_conv/depthwise_weights/read"
  attr {
    key: "T"
    value {
      type: DT_FLOAT
    }
  }
  attr {
    key: "data_format"
    value {
      s: "NHWC"
    }
  }
  attr {
    key: "padding"
    value {
      s: "SAME"
    }
  }
  attr {
    key: "strides"
    value {
      list {
        i: 1
        i: 2
        i: 2
        i: 1
      }
    }
  }
}
node {
  name: "MobileNet/conv_ds_3/depthwise_conv/biases/Initializer/zeros"
  op: "Const"
  attr {
    key: "_class"
    value {
      list {
        s: "loc:@MobileNet/conv_ds_3/depthwise_conv/biases"
      }
    }
  }
  attr {
    key: "dtype"
    value {
      type: DT_FLOAT
    }
  }
  attr {
    key: "value"
    value {
      tensor {
        dtype: DT_FLOAT
        tensor_shape {
          dim {
            size: 64
          }
        }
        float_val: 0.0
      }
    }
  }
}
node {
  name: "MobileNet/conv_ds_3/depthwise_conv/biases"
  op: "VariableV2"
  attr {
    key: "_class"
    value {
      list {
        s: "loc:@MobileNet/conv_ds_3/depthwise_conv/biases"
      }
    }
  }
  attr {
    key: "container"
    value {
      s: ""
    }
  }
  attr {
    key: "dtype"
    value {
      type: DT_FLOAT
    }
  }
  attr {
    key: "shape"
    value {
      shape {
        dim {
          size: 64
        }
      }
    }
  }
  attr {
    key: "shared_name"
    value {
      s: ""
    }
  }
}
node {
  name: "MobileNet/conv_ds_3/depthwise_conv/biases/Assign"
  op: "Assign"
  input: "MobileNet/conv_ds_3/depthwise_conv/biases"
  input: "MobileNet/conv_ds_3/depthwise_conv/biases/Initializer/zeros"
  attr {
    key: "T"
    value {
      type: DT_FLOAT
    }
  }
  attr {
    key: "_class"
    value {
      list {
        s: "loc:@MobileNet/conv_ds_3/depthwise_conv/biases"
      }
    }
  }
  attr {
    key: "use_locking"
    value {
      b: true
    }
  }
  attr {
    key: "validate_shape"
    value {
      b: true
    }
  }
}
node {
  name: "MobileNet/conv_ds_3/depthwise_conv/biases/read"
  op: "Identity"
  input: "MobileNet/conv_ds_3/depthwise_conv/biases"
  attr {
    key: "T"
    value {
      type: DT_FLOAT
    }
  }
  attr {
    key: "_class"
    value {
      list {
        s: "loc:@MobileNet/conv_ds_3/depthwise_conv/biases"
      }
    }
  }
}
node {
  name: "MobileNet/conv_ds_3/depthwise_conv/BiasAdd"
  op: "BiasAdd"
  input: "MobileNet/conv_ds_3/depthwise_conv/depthwise"
  input: "MobileNet/conv_ds_3/depthwise_conv/biases/read"
  attr {
    key: "T"
    value {
      type: DT_FLOAT
    }
  }
  attr {
    key: "data_format"
    value {
      s: "NHWC"
    }
  }
}
node {
  name: "MobileNet/conv_ds_3/dw_batch_norm/Const"
  op: "Const"
  attr {
    key: "dtype"
    value {
      type: DT_FLOAT
    }
  }
  attr {
    key: "value"
    value {
      tensor {
        dtype: DT_FLOAT
        tensor_shape {
          dim {
            size: 64
          }
        }
        float_val: 1.0
      }
    }
  }
}
node {
  name: "MobileNet/conv_ds_3/dw_batch_norm/beta/Initializer/zeros"
  op: "Const"
  attr {
    key: "_class"
    value {
      list {
        s: "loc:@MobileNet/conv_ds_3/dw_batch_norm/beta"
      }
    }
  }
  attr {
    key: "dtype"
    value {
      type: DT_FLOAT
    }
  }
  attr {
    key: "value"
    value {
      tensor {
        dtype: DT_FLOAT
        tensor_shape {
          dim {
            size: 64
          }
        }
        float_val: 0.0
      }
    }
  }
}
node {
  name: "MobileNet/conv_ds_3/dw_batch_norm/beta"
  op: "VariableV2"
  attr {
    key: "_class"
    value {
      list {
        s: "loc:@MobileNet/conv_ds_3/dw_batch_norm/beta"
      }
    }
  }
  attr {
    key: "container"
    value {
      s: ""
    }
  }
  attr {
    key: "dtype"
    value {
      type: DT_FLOAT
    }
  }
  attr {
    key: "shape"
    value {
      shape {
        dim {
          size: 64
        }
      }
    }
  }
  attr {
    key: "shared_name"
    value {
      s: ""
    }
  }
}
node {
  name: "MobileNet/conv_ds_3/dw_batch_norm/beta/Assign"
  op: "Assign"
  input: "MobileNet/conv_ds_3/dw_batch_norm/beta"
  input: "MobileNet/conv_ds_3/dw_batch_norm/beta/Initializer/zeros"
  attr {
    key: "T"
    value {
      type: DT_FLOAT
    }
  }
  attr {
    key: "_class"
    value {
      list {
        s: "loc:@MobileNet/conv_ds_3/dw_batch_norm/beta"
      }
    }
  }
  attr {
    key: "use_locking"
    value {
      b: true
    }
  }
  attr {
    key: "validate_shape"
    value {
      b: true
    }
  }
}
node {
  name: "MobileNet/conv_ds_3/dw_batch_norm/beta/read"
  op: "Identity"
  input: "MobileNet/conv_ds_3/dw_batch_norm/beta"
  attr {
    key: "T"
    value {
      type: DT_FLOAT
    }
  }
  attr {
    key: "_class"
    value {
      list {
        s: "loc:@MobileNet/conv_ds_3/dw_batch_norm/beta"
      }
    }
  }
}
node {
  name: "MobileNet/conv_ds_3/dw_batch_norm/moving_mean/Initializer/zeros"
  op: "Const"
  attr {
    key: "_class"
    value {
      list {
        s: "loc:@MobileNet/conv_ds_3/dw_batch_norm/moving_mean"
      }
    }
  }
  attr {
    key: "dtype"
    value {
      type: DT_FLOAT
    }
  }
  attr {
    key: "value"
    value {
      tensor {
        dtype: DT_FLOAT
        tensor_shape {
          dim {
            size: 64
          }
        }
        float_val: 0.0
      }
    }
  }
}
node {
  name: "MobileNet/conv_ds_3/dw_batch_norm/moving_mean"
  op: "VariableV2"
  attr {
    key: "_class"
    value {
      list {
        s: "loc:@MobileNet/conv_ds_3/dw_batch_norm/moving_mean"
      }
    }
  }
  attr {
    key: "container"
    value {
      s: ""
    }
  }
  attr {
    key: "dtype"
    value {
      type: DT_FLOAT
    }
  }
  attr {
    key: "shape"
    value {
      shape {
        dim {
          size: 64
        }
      }
    }
  }
  attr {
    key: "shared_name"
    value {
      s: ""
    }
  }
}
node {
  name: "MobileNet/conv_ds_3/dw_batch_norm/moving_mean/Assign"
  op: "Assign"
  input: "MobileNet/conv_ds_3/dw_batch_norm/moving_mean"
  input: "MobileNet/conv_ds_3/dw_batch_norm/moving_mean/Initializer/zeros"
  attr {
    key: "T"
    value {
      type: DT_FLOAT
    }
  }
  attr {
    key: "_class"
    value {
      list {
        s: "loc:@MobileNet/conv_ds_3/dw_batch_norm/moving_mean"
      }
    }
  }
  attr {
    key: "use_locking"
    value {
      b: true
    }
  }
  attr {
    key: "validate_shape"
    value {
      b: true
    }
  }
}
node {
  name: "MobileNet/conv_ds_3/dw_batch_norm/moving_mean/read"
  op: "Identity"
  input: "MobileNet/conv_ds_3/dw_batch_norm/moving_mean"
  attr {
    key: "T"
    value {
      type: DT_FLOAT
    }
  }
  attr {
    key: "_class"
    value {
      list {
        s: "loc:@MobileNet/conv_ds_3/dw_batch_norm/moving_mean"
      }
    }
  }
}
node {
  name: "MobileNet/conv_ds_3/dw_batch_norm/moving_variance/Initializer/ones"
  op: "Const"
  attr {
    key: "_class"
    value {
      list {
        s: "loc:@MobileNet/conv_ds_3/dw_batch_norm/moving_variance"
      }
    }
  }
  attr {
    key: "dtype"
    value {
      type: DT_FLOAT
    }
  }
  attr {
    key: "value"
    value {
      tensor {
        dtype: DT_FLOAT
        tensor_shape {
          dim {
            size: 64
          }
        }
        float_val: 1.0
      }
    }
  }
}
node {
  name: "MobileNet/conv_ds_3/dw_batch_norm/moving_variance"
  op: "VariableV2"
  attr {
    key: "_class"
    value {
      list {
        s: "loc:@MobileNet/conv_ds_3/dw_batch_norm/moving_variance"
      }
    }
  }
  attr {
    key: "container"
    value {
      s: ""
    }
  }
  attr {
    key: "dtype"
    value {
      type: DT_FLOAT
    }
  }
  attr {
    key: "shape"
    value {
      shape {
        dim {
          size: 64
        }
      }
    }
  }
  attr {
    key: "shared_name"
    value {
      s: ""
    }
  }
}
node {
  name: "MobileNet/conv_ds_3/dw_batch_norm/moving_variance/Assign"
  op: "Assign"
  input: "MobileNet/conv_ds_3/dw_batch_norm/moving_variance"
  input: "MobileNet/conv_ds_3/dw_batch_norm/moving_variance/Initializer/ones"
  attr {
    key: "T"
    value {
      type: DT_FLOAT
    }
  }
  attr {
    key: "_class"
    value {
      list {
        s: "loc:@MobileNet/conv_ds_3/dw_batch_norm/moving_variance"
      }
    }
  }
  attr {
    key: "use_locking"
    value {
      b: true
    }
  }
  attr {
    key: "validate_shape"
    value {
      b: true
    }
  }
}
node {
  name: "MobileNet/conv_ds_3/dw_batch_norm/moving_variance/read"
  op: "Identity"
  input: "MobileNet/conv_ds_3/dw_batch_norm/moving_variance"
  attr {
    key: "T"
    value {
      type: DT_FLOAT
    }
  }
  attr {
    key: "_class"
    value {
      list {
        s: "loc:@MobileNet/conv_ds_3/dw_batch_norm/moving_variance"
      }
    }
  }
}
node {
  name: "MobileNet/conv_ds_3/dw_batch_norm/Const_1"
  op: "Const"
  attr {
    key: "dtype"
    value {
      type: DT_FLOAT
    }
  }
  attr {
    key: "value"
    value {
      tensor {
        dtype: DT_FLOAT
        tensor_shape {
          dim {
          }
        }
      }
    }
  }
}
node {
  name: "MobileNet/conv_ds_3/dw_batch_norm/Const_2"
  op: "Const"
  attr {
    key: "dtype"
    value {
      type: DT_FLOAT
    }
  }
  attr {
    key: "value"
    value {
      tensor {
        dtype: DT_FLOAT
        tensor_shape {
          dim {
          }
        }
      }
    }
  }
}
node {
  name: "MobileNet/conv_ds_3/dw_batch_norm/FusedBatchNorm"
  op: "FusedBatchNorm"
  input: "MobileNet/conv_ds_3/depthwise_conv/BiasAdd"
  input: "MobileNet/conv_ds_3/dw_batch_norm/Const"
  input: "MobileNet/conv_ds_3/dw_batch_norm/beta/read"
  input: "MobileNet/conv_ds_3/dw_batch_norm/Const_1"
  input: "MobileNet/conv_ds_3/dw_batch_norm/Const_2"
  attr {
    key: "T"
    value {
      type: DT_FLOAT
    }
  }
  attr {
    key: "data_format"
    value {
      s: "NHWC"
    }
  }
  attr {
    key: "epsilon"
    value {
      f: 0.0010000000474974513
    }
  }
  attr {
    key: "is_training"
    value {
      b: true
    }
  }
}
node {
  name: "MobileNet/conv_ds_3/dw_batch_norm/Const_3"
  op: "Const"
  attr {
    key: "dtype"
    value {
      type: DT_FLOAT
    }
  }
  attr {
    key: "value"
    value {
      tensor {
        dtype: DT_FLOAT
        tensor_shape {
        }
        float_val: 0.0010000000474974513
      }
    }
  }
}
node {
  name: "MobileNet/conv_ds_3/dw_batch_norm/AssignMovingAvg/read"
  op: "Identity"
  input: "MobileNet/conv_ds_3/dw_batch_norm/moving_mean"
  attr {
    key: "T"
    value {
      type: DT_FLOAT
    }
  }
  attr {
    key: "_class"
    value {
      list {
        s: "loc:@MobileNet/conv_ds_3/dw_batch_norm/moving_mean"
      }
    }
  }
}
node {
  name: "MobileNet/conv_ds_3/dw_batch_norm/AssignMovingAvg/Sub"
  op: "Sub"
  input: "MobileNet/conv_ds_3/dw_batch_norm/AssignMovingAvg/read"
  input: "MobileNet/conv_ds_3/dw_batch_norm/FusedBatchNorm:1"
  attr {
    key: "T"
    value {
      type: DT_FLOAT
    }
  }
  attr {
    key: "_class"
    value {
      list {
        s: "loc:@MobileNet/conv_ds_3/dw_batch_norm/moving_mean"
      }
    }
  }
}
node {
  name: "MobileNet/conv_ds_3/dw_batch_norm/AssignMovingAvg/Mul"
  op: "Mul"
  input: "MobileNet/conv_ds_3/dw_batch_norm/AssignMovingAvg/Sub"
  input: "MobileNet/conv_ds_3/dw_batch_norm/Const_3"
  attr {
    key: "T"
    value {
      type: DT_FLOAT
    }
  }
  attr {
    key: "_class"
    value {
      list {
        s: "loc:@MobileNet/conv_ds_3/dw_batch_norm/moving_mean"
      }
    }
  }
}
node {
  name: "MobileNet/conv_ds_3/dw_batch_norm/AssignMovingAvg"
  op: "AssignSub"
  input: "MobileNet/conv_ds_3/dw_batch_norm/moving_mean"
  input: "MobileNet/conv_ds_3/dw_batch_norm/AssignMovingAvg/Mul"
  attr {
    key: "T"
    value {
      type: DT_FLOAT
    }
  }
  attr {
    key: "_class"
    value {
      list {
        s: "loc:@MobileNet/conv_ds_3/dw_batch_norm/moving_mean"
      }
    }
  }
  attr {
    key: "use_locking"
    value {
      b: false
    }
  }
}
node {
  name: "MobileNet/conv_ds_3/dw_batch_norm/AssignMovingAvg_1/read"
  op: "Identity"
  input: "MobileNet/conv_ds_3/dw_batch_norm/moving_variance"
  attr {
    key: "T"
    value {
      type: DT_FLOAT
    }
  }
  attr {
    key: "_class"
    value {
      list {
        s: "loc:@MobileNet/conv_ds_3/dw_batch_norm/moving_variance"
      }
    }
  }
}
node {
  name: "MobileNet/conv_ds_3/dw_batch_norm/AssignMovingAvg_1/Sub"
  op: "Sub"
  input: "MobileNet/conv_ds_3/dw_batch_norm/AssignMovingAvg_1/read"
  input: "MobileNet/conv_ds_3/dw_batch_norm/FusedBatchNorm:2"
  attr {
    key: "T"
    value {
      type: DT_FLOAT
    }
  }
  attr {
    key: "_class"
    value {
      list {
        s: "loc:@MobileNet/conv_ds_3/dw_batch_norm/moving_variance"
      }
    }
  }
}
node {
  name: "MobileNet/conv_ds_3/dw_batch_norm/AssignMovingAvg_1/Mul"
  op: "Mul"
  input: "MobileNet/conv_ds_3/dw_batch_norm/AssignMovingAvg_1/Sub"
  input: "MobileNet/conv_ds_3/dw_batch_norm/Const_3"
  attr {
    key: "T"
    value {
      type: DT_FLOAT
    }
  }
  attr {
    key: "_class"
    value {
      list {
        s: "loc:@MobileNet/conv_ds_3/dw_batch_norm/moving_variance"
      }
    }
  }
}
node {
  name: "MobileNet/conv_ds_3/dw_batch_norm/AssignMovingAvg_1"
  op: "AssignSub"
  input: "MobileNet/conv_ds_3/dw_batch_norm/moving_variance"
  input: "MobileNet/conv_ds_3/dw_batch_norm/AssignMovingAvg_1/Mul"
  attr {
    key: "T"
    value {
      type: DT_FLOAT
    }
  }
  attr {
    key: "_class"
    value {
      list {
        s: "loc:@MobileNet/conv_ds_3/dw_batch_norm/moving_variance"
      }
    }
  }
  attr {
    key: "use_locking"
    value {
      b: false
    }
  }
}
node {
  name: "MobileNet/conv_ds_3/dw_batch_norm/Relu"
  op: "Relu"
  input: "MobileNet/conv_ds_3/dw_batch_norm/FusedBatchNorm"
  attr {
    key: "T"
    value {
      type: DT_FLOAT
    }
  }
}
node {
  name: "MobileNet/conv_ds_3/pointwise_conv/weights/Initializer/random_uniform/shape"
  op: "Const"
  attr {
    key: "_class"
    value {
      list {
        s: "loc:@MobileNet/conv_ds_3/pointwise_conv/weights"
      }
    }
  }
  attr {
    key: "dtype"
    value {
      type: DT_INT32
    }
  }
  attr {
    key: "value"
    value {
      tensor {
        dtype: DT_INT32
        tensor_shape {
          dim {
            size: 4
          }
        }
        tensor_content: "\001\000\000\000\001\000\000\000@\000\000\000\200\000\000\000"
      }
    }
  }
}
node {
  name: "MobileNet/conv_ds_3/pointwise_conv/weights/Initializer/random_uniform/min"
  op: "Const"
  attr {
    key: "_class"
    value {
      list {
        s: "loc:@MobileNet/conv_ds_3/pointwise_conv/weights"
      }
    }
  }
  attr {
    key: "dtype"
    value {
      type: DT_FLOAT
    }
  }
  attr {
    key: "value"
    value {
      tensor {
        dtype: DT_FLOAT
        tensor_shape {
        }
        float_val: -0.1767766922712326
      }
    }
  }
}
node {
  name: "MobileNet/conv_ds_3/pointwise_conv/weights/Initializer/random_uniform/max"
  op: "Const"
  attr {
    key: "_class"
    value {
      list {
        s: "loc:@MobileNet/conv_ds_3/pointwise_conv/weights"
      }
    }
  }
  attr {
    key: "dtype"
    value {
      type: DT_FLOAT
    }
  }
  attr {
    key: "value"
    value {
      tensor {
        dtype: DT_FLOAT
        tensor_shape {
        }
        float_val: 0.1767766922712326
      }
    }
  }
}
node {
  name: "MobileNet/conv_ds_3/pointwise_conv/weights/Initializer/random_uniform/RandomUniform"
  op: "RandomUniform"
  input: "MobileNet/conv_ds_3/pointwise_conv/weights/Initializer/random_uniform/shape"
  attr {
    key: "T"
    value {
      type: DT_INT32
    }
  }
  attr {
    key: "_class"
    value {
      list {
        s: "loc:@MobileNet/conv_ds_3/pointwise_conv/weights"
      }
    }
  }
  attr {
    key: "dtype"
    value {
      type: DT_FLOAT
    }
  }
  attr {
    key: "seed"
    value {
      i: 0
    }
  }
  attr {
    key: "seed2"
    value {
      i: 0
    }
  }
}
node {
  name: "MobileNet/conv_ds_3/pointwise_conv/weights/Initializer/random_uniform/sub"
  op: "Sub"
  input: "MobileNet/conv_ds_3/pointwise_conv/weights/Initializer/random_uniform/max"
  input: "MobileNet/conv_ds_3/pointwise_conv/weights/Initializer/random_uniform/min"
  attr {
    key: "T"
    value {
      type: DT_FLOAT
    }
  }
  attr {
    key: "_class"
    value {
      list {
        s: "loc:@MobileNet/conv_ds_3/pointwise_conv/weights"
      }
    }
  }
}
node {
  name: "MobileNet/conv_ds_3/pointwise_conv/weights/Initializer/random_uniform/mul"
  op: "Mul"
  input: "MobileNet/conv_ds_3/pointwise_conv/weights/Initializer/random_uniform/RandomUniform"
  input: "MobileNet/conv_ds_3/pointwise_conv/weights/Initializer/random_uniform/sub"
  attr {
    key: "T"
    value {
      type: DT_FLOAT
    }
  }
  attr {
    key: "_class"
    value {
      list {
        s: "loc:@MobileNet/conv_ds_3/pointwise_conv/weights"
      }
    }
  }
}
node {
  name: "MobileNet/conv_ds_3/pointwise_conv/weights/Initializer/random_uniform"
  op: "Add"
  input: "MobileNet/conv_ds_3/pointwise_conv/weights/Initializer/random_uniform/mul"
  input: "MobileNet/conv_ds_3/pointwise_conv/weights/Initializer/random_uniform/min"
  attr {
    key: "T"
    value {
      type: DT_FLOAT
    }
  }
  attr {
    key: "_class"
    value {
      list {
        s: "loc:@MobileNet/conv_ds_3/pointwise_conv/weights"
      }
    }
  }
}
node {
  name: "MobileNet/conv_ds_3/pointwise_conv/weights"
  op: "VariableV2"
  attr {
    key: "_class"
    value {
      list {
        s: "loc:@MobileNet/conv_ds_3/pointwise_conv/weights"
      }
    }
  }
  attr {
    key: "container"
    value {
      s: ""
    }
  }
  attr {
    key: "dtype"
    value {
      type: DT_FLOAT
    }
  }
  attr {
    key: "shape"
    value {
      shape {
        dim {
          size: 1
        }
        dim {
          size: 1
        }
        dim {
          size: 64
        }
        dim {
          size: 128
        }
      }
    }
  }
  attr {
    key: "shared_name"
    value {
      s: ""
    }
  }
}
node {
  name: "MobileNet/conv_ds_3/pointwise_conv/weights/Assign"
  op: "Assign"
  input: "MobileNet/conv_ds_3/pointwise_conv/weights"
  input: "MobileNet/conv_ds_3/pointwise_conv/weights/Initializer/random_uniform"
  attr {
    key: "T"
    value {
      type: DT_FLOAT
    }
  }
  attr {
    key: "_class"
    value {
      list {
        s: "loc:@MobileNet/conv_ds_3/pointwise_conv/weights"
      }
    }
  }
  attr {
    key: "use_locking"
    value {
      b: true
    }
  }
  attr {
    key: "validate_shape"
    value {
      b: true
    }
  }
}
node {
  name: "MobileNet/conv_ds_3/pointwise_conv/weights/read"
  op: "Identity"
  input: "MobileNet/conv_ds_3/pointwise_conv/weights"
  attr {
    key: "T"
    value {
      type: DT_FLOAT
    }
  }
  attr {
    key: "_class"
    value {
      list {
        s: "loc:@MobileNet/conv_ds_3/pointwise_conv/weights"
      }
    }
  }
}
node {
  name: "MobileNet/conv_ds_3/pointwise_conv/biases/Initializer/zeros"
  op: "Const"
  attr {
    key: "_class"
    value {
      list {
        s: "loc:@MobileNet/conv_ds_3/pointwise_conv/biases"
      }
    }
  }
  attr {
    key: "dtype"
    value {
      type: DT_FLOAT
    }
  }
  attr {
    key: "value"
    value {
      tensor {
        dtype: DT_FLOAT
        tensor_shape {
          dim {
            size: 128
          }
        }
        float_val: 0.0
      }
    }
  }
}
node {
  name: "MobileNet/conv_ds_3/pointwise_conv/biases"
  op: "VariableV2"
  attr {
    key: "_class"
    value {
      list {
        s: "loc:@MobileNet/conv_ds_3/pointwise_conv/biases"
      }
    }
  }
  attr {
    key: "container"
    value {
      s: ""
    }
  }
  attr {
    key: "dtype"
    value {
      type: DT_FLOAT
    }
  }
  attr {
    key: "shape"
    value {
      shape {
        dim {
          size: 128
        }
      }
    }
  }
  attr {
    key: "shared_name"
    value {
      s: ""
    }
  }
}
node {
  name: "MobileNet/conv_ds_3/pointwise_conv/biases/Assign"
  op: "Assign"
  input: "MobileNet/conv_ds_3/pointwise_conv/biases"
  input: "MobileNet/conv_ds_3/pointwise_conv/biases/Initializer/zeros"
  attr {
    key: "T"
    value {
      type: DT_FLOAT
    }
  }
  attr {
    key: "_class"
    value {
      list {
        s: "loc:@MobileNet/conv_ds_3/pointwise_conv/biases"
      }
    }
  }
  attr {
    key: "use_locking"
    value {
      b: true
    }
  }
  attr {
    key: "validate_shape"
    value {
      b: true
    }
  }
}
node {
  name: "MobileNet/conv_ds_3/pointwise_conv/biases/read"
  op: "Identity"
  input: "MobileNet/conv_ds_3/pointwise_conv/biases"
  attr {
    key: "T"
    value {
      type: DT_FLOAT
    }
  }
  attr {
    key: "_class"
    value {
      list {
        s: "loc:@MobileNet/conv_ds_3/pointwise_conv/biases"
      }
    }
  }
}
node {
  name: "MobileNet/conv_ds_3/pointwise_conv/dilation_rate"
  op: "Const"
  attr {
    key: "dtype"
    value {
      type: DT_INT32
    }
  }
  attr {
    key: "value"
    value {
      tensor {
        dtype: DT_INT32
        tensor_shape {
          dim {
            size: 2
          }
        }
        tensor_content: "\001\000\000\000\001\000\000\000"
      }
    }
  }
}
node {
  name: "MobileNet/conv_ds_3/pointwise_conv/Conv2D"
  op: "Conv2D"
  input: "MobileNet/conv_ds_3/dw_batch_norm/Relu"
  input: "MobileNet/conv_ds_3/pointwise_conv/weights/read"
  attr {
    key: "T"
    value {
      type: DT_FLOAT
    }
  }
  attr {
    key: "data_format"
    value {
      s: "NHWC"
    }
  }
  attr {
    key: "padding"
    value {
      s: "SAME"
    }
  }
  attr {
    key: "strides"
    value {
      list {
        i: 1
        i: 1
        i: 1
        i: 1
      }
    }
  }
  attr {
    key: "use_cudnn_on_gpu"
    value {
      b: true
    }
  }
}
node {
  name: "MobileNet/conv_ds_3/pointwise_conv/BiasAdd"
  op: "BiasAdd"
  input: "MobileNet/conv_ds_3/pointwise_conv/Conv2D"
  input: "MobileNet/conv_ds_3/pointwise_conv/biases/read"
  attr {
    key: "T"
    value {
      type: DT_FLOAT
    }
  }
  attr {
    key: "data_format"
    value {
      s: "NHWC"
    }
  }
}
node {
  name: "MobileNet/conv_ds_3/pw_batch_norm/Const"
  op: "Const"
  attr {
    key: "dtype"
    value {
      type: DT_FLOAT
    }
  }
  attr {
    key: "value"
    value {
      tensor {
        dtype: DT_FLOAT
        tensor_shape {
          dim {
            size: 128
          }
        }
        float_val: 1.0
      }
    }
  }
}
node {
  name: "MobileNet/conv_ds_3/pw_batch_norm/beta/Initializer/zeros"
  op: "Const"
  attr {
    key: "_class"
    value {
      list {
        s: "loc:@MobileNet/conv_ds_3/pw_batch_norm/beta"
      }
    }
  }
  attr {
    key: "dtype"
    value {
      type: DT_FLOAT
    }
  }
  attr {
    key: "value"
    value {
      tensor {
        dtype: DT_FLOAT
        tensor_shape {
          dim {
            size: 128
          }
        }
        float_val: 0.0
      }
    }
  }
}
node {
  name: "MobileNet/conv_ds_3/pw_batch_norm/beta"
  op: "VariableV2"
  attr {
    key: "_class"
    value {
      list {
        s: "loc:@MobileNet/conv_ds_3/pw_batch_norm/beta"
      }
    }
  }
  attr {
    key: "container"
    value {
      s: ""
    }
  }
  attr {
    key: "dtype"
    value {
      type: DT_FLOAT
    }
  }
  attr {
    key: "shape"
    value {
      shape {
        dim {
          size: 128
        }
      }
    }
  }
  attr {
    key: "shared_name"
    value {
      s: ""
    }
  }
}
node {
  name: "MobileNet/conv_ds_3/pw_batch_norm/beta/Assign"
  op: "Assign"
  input: "MobileNet/conv_ds_3/pw_batch_norm/beta"
  input: "MobileNet/conv_ds_3/pw_batch_norm/beta/Initializer/zeros"
  attr {
    key: "T"
    value {
      type: DT_FLOAT
    }
  }
  attr {
    key: "_class"
    value {
      list {
        s: "loc:@MobileNet/conv_ds_3/pw_batch_norm/beta"
      }
    }
  }
  attr {
    key: "use_locking"
    value {
      b: true
    }
  }
  attr {
    key: "validate_shape"
    value {
      b: true
    }
  }
}
node {
  name: "MobileNet/conv_ds_3/pw_batch_norm/beta/read"
  op: "Identity"
  input: "MobileNet/conv_ds_3/pw_batch_norm/beta"
  attr {
    key: "T"
    value {
      type: DT_FLOAT
    }
  }
  attr {
    key: "_class"
    value {
      list {
        s: "loc:@MobileNet/conv_ds_3/pw_batch_norm/beta"
      }
    }
  }
}
node {
  name: "MobileNet/conv_ds_3/pw_batch_norm/moving_mean/Initializer/zeros"
  op: "Const"
  attr {
    key: "_class"
    value {
      list {
        s: "loc:@MobileNet/conv_ds_3/pw_batch_norm/moving_mean"
      }
    }
  }
  attr {
    key: "dtype"
    value {
      type: DT_FLOAT
    }
  }
  attr {
    key: "value"
    value {
      tensor {
        dtype: DT_FLOAT
        tensor_shape {
          dim {
            size: 128
          }
        }
        float_val: 0.0
      }
    }
  }
}
node {
  name: "MobileNet/conv_ds_3/pw_batch_norm/moving_mean"
  op: "VariableV2"
  attr {
    key: "_class"
    value {
      list {
        s: "loc:@MobileNet/conv_ds_3/pw_batch_norm/moving_mean"
      }
    }
  }
  attr {
    key: "container"
    value {
      s: ""
    }
  }
  attr {
    key: "dtype"
    value {
      type: DT_FLOAT
    }
  }
  attr {
    key: "shape"
    value {
      shape {
        dim {
          size: 128
        }
      }
    }
  }
  attr {
    key: "shared_name"
    value {
      s: ""
    }
  }
}
node {
  name: "MobileNet/conv_ds_3/pw_batch_norm/moving_mean/Assign"
  op: "Assign"
  input: "MobileNet/conv_ds_3/pw_batch_norm/moving_mean"
  input: "MobileNet/conv_ds_3/pw_batch_norm/moving_mean/Initializer/zeros"
  attr {
    key: "T"
    value {
      type: DT_FLOAT
    }
  }
  attr {
    key: "_class"
    value {
      list {
        s: "loc:@MobileNet/conv_ds_3/pw_batch_norm/moving_mean"
      }
    }
  }
  attr {
    key: "use_locking"
    value {
      b: true
    }
  }
  attr {
    key: "validate_shape"
    value {
      b: true
    }
  }
}
node {
  name: "MobileNet/conv_ds_3/pw_batch_norm/moving_mean/read"
  op: "Identity"
  input: "MobileNet/conv_ds_3/pw_batch_norm/moving_mean"
  attr {
    key: "T"
    value {
      type: DT_FLOAT
    }
  }
  attr {
    key: "_class"
    value {
      list {
        s: "loc:@MobileNet/conv_ds_3/pw_batch_norm/moving_mean"
      }
    }
  }
}
node {
  name: "MobileNet/conv_ds_3/pw_batch_norm/moving_variance/Initializer/ones"
  op: "Const"
  attr {
    key: "_class"
    value {
      list {
        s: "loc:@MobileNet/conv_ds_3/pw_batch_norm/moving_variance"
      }
    }
  }
  attr {
    key: "dtype"
    value {
      type: DT_FLOAT
    }
  }
  attr {
    key: "value"
    value {
      tensor {
        dtype: DT_FLOAT
        tensor_shape {
          dim {
            size: 128
          }
        }
        float_val: 1.0
      }
    }
  }
}
node {
  name: "MobileNet/conv_ds_3/pw_batch_norm/moving_variance"
  op: "VariableV2"
  attr {
    key: "_class"
    value {
      list {
        s: "loc:@MobileNet/conv_ds_3/pw_batch_norm/moving_variance"
      }
    }
  }
  attr {
    key: "container"
    value {
      s: ""
    }
  }
  attr {
    key: "dtype"
    value {
      type: DT_FLOAT
    }
  }
  attr {
    key: "shape"
    value {
      shape {
        dim {
          size: 128
        }
      }
    }
  }
  attr {
    key: "shared_name"
    value {
      s: ""
    }
  }
}
node {
  name: "MobileNet/conv_ds_3/pw_batch_norm/moving_variance/Assign"
  op: "Assign"
  input: "MobileNet/conv_ds_3/pw_batch_norm/moving_variance"
  input: "MobileNet/conv_ds_3/pw_batch_norm/moving_variance/Initializer/ones"
  attr {
    key: "T"
    value {
      type: DT_FLOAT
    }
  }
  attr {
    key: "_class"
    value {
      list {
        s: "loc:@MobileNet/conv_ds_3/pw_batch_norm/moving_variance"
      }
    }
  }
  attr {
    key: "use_locking"
    value {
      b: true
    }
  }
  attr {
    key: "validate_shape"
    value {
      b: true
    }
  }
}
node {
  name: "MobileNet/conv_ds_3/pw_batch_norm/moving_variance/read"
  op: "Identity"
  input: "MobileNet/conv_ds_3/pw_batch_norm/moving_variance"
  attr {
    key: "T"
    value {
      type: DT_FLOAT
    }
  }
  attr {
    key: "_class"
    value {
      list {
        s: "loc:@MobileNet/conv_ds_3/pw_batch_norm/moving_variance"
      }
    }
  }
}
node {
  name: "MobileNet/conv_ds_3/pw_batch_norm/Const_1"
  op: "Const"
  attr {
    key: "dtype"
    value {
      type: DT_FLOAT
    }
  }
  attr {
    key: "value"
    value {
      tensor {
        dtype: DT_FLOAT
        tensor_shape {
          dim {
          }
        }
      }
    }
  }
}
node {
  name: "MobileNet/conv_ds_3/pw_batch_norm/Const_2"
  op: "Const"
  attr {
    key: "dtype"
    value {
      type: DT_FLOAT
    }
  }
  attr {
    key: "value"
    value {
      tensor {
        dtype: DT_FLOAT
        tensor_shape {
          dim {
          }
        }
      }
    }
  }
}
node {
  name: "MobileNet/conv_ds_3/pw_batch_norm/FusedBatchNorm"
  op: "FusedBatchNorm"
  input: "MobileNet/conv_ds_3/pointwise_conv/BiasAdd"
  input: "MobileNet/conv_ds_3/pw_batch_norm/Const"
  input: "MobileNet/conv_ds_3/pw_batch_norm/beta/read"
  input: "MobileNet/conv_ds_3/pw_batch_norm/Const_1"
  input: "MobileNet/conv_ds_3/pw_batch_norm/Const_2"
  attr {
    key: "T"
    value {
      type: DT_FLOAT
    }
  }
  attr {
    key: "data_format"
    value {
      s: "NHWC"
    }
  }
  attr {
    key: "epsilon"
    value {
      f: 0.0010000000474974513
    }
  }
  attr {
    key: "is_training"
    value {
      b: true
    }
  }
}
node {
  name: "MobileNet/conv_ds_3/pw_batch_norm/Const_3"
  op: "Const"
  attr {
    key: "dtype"
    value {
      type: DT_FLOAT
    }
  }
  attr {
    key: "value"
    value {
      tensor {
        dtype: DT_FLOAT
        tensor_shape {
        }
        float_val: 0.0010000000474974513
      }
    }
  }
}
node {
  name: "MobileNet/conv_ds_3/pw_batch_norm/AssignMovingAvg/read"
  op: "Identity"
  input: "MobileNet/conv_ds_3/pw_batch_norm/moving_mean"
  attr {
    key: "T"
    value {
      type: DT_FLOAT
    }
  }
  attr {
    key: "_class"
    value {
      list {
        s: "loc:@MobileNet/conv_ds_3/pw_batch_norm/moving_mean"
      }
    }
  }
}
node {
  name: "MobileNet/conv_ds_3/pw_batch_norm/AssignMovingAvg/Sub"
  op: "Sub"
  input: "MobileNet/conv_ds_3/pw_batch_norm/AssignMovingAvg/read"
  input: "MobileNet/conv_ds_3/pw_batch_norm/FusedBatchNorm:1"
  attr {
    key: "T"
    value {
      type: DT_FLOAT
    }
  }
  attr {
    key: "_class"
    value {
      list {
        s: "loc:@MobileNet/conv_ds_3/pw_batch_norm/moving_mean"
      }
    }
  }
}
node {
  name: "MobileNet/conv_ds_3/pw_batch_norm/AssignMovingAvg/Mul"
  op: "Mul"
  input: "MobileNet/conv_ds_3/pw_batch_norm/AssignMovingAvg/Sub"
  input: "MobileNet/conv_ds_3/pw_batch_norm/Const_3"
  attr {
    key: "T"
    value {
      type: DT_FLOAT
    }
  }
  attr {
    key: "_class"
    value {
      list {
        s: "loc:@MobileNet/conv_ds_3/pw_batch_norm/moving_mean"
      }
    }
  }
}
node {
  name: "MobileNet/conv_ds_3/pw_batch_norm/AssignMovingAvg"
  op: "AssignSub"
  input: "MobileNet/conv_ds_3/pw_batch_norm/moving_mean"
  input: "MobileNet/conv_ds_3/pw_batch_norm/AssignMovingAvg/Mul"
  attr {
    key: "T"
    value {
      type: DT_FLOAT
    }
  }
  attr {
    key: "_class"
    value {
      list {
        s: "loc:@MobileNet/conv_ds_3/pw_batch_norm/moving_mean"
      }
    }
  }
  attr {
    key: "use_locking"
    value {
      b: false
    }
  }
}
node {
  name: "MobileNet/conv_ds_3/pw_batch_norm/AssignMovingAvg_1/read"
  op: "Identity"
  input: "MobileNet/conv_ds_3/pw_batch_norm/moving_variance"
  attr {
    key: "T"
    value {
      type: DT_FLOAT
    }
  }
  attr {
    key: "_class"
    value {
      list {
        s: "loc:@MobileNet/conv_ds_3/pw_batch_norm/moving_variance"
      }
    }
  }
}
node {
  name: "MobileNet/conv_ds_3/pw_batch_norm/AssignMovingAvg_1/Sub"
  op: "Sub"
  input: "MobileNet/conv_ds_3/pw_batch_norm/AssignMovingAvg_1/read"
  input: "MobileNet/conv_ds_3/pw_batch_norm/FusedBatchNorm:2"
  attr {
    key: "T"
    value {
      type: DT_FLOAT
    }
  }
  attr {
    key: "_class"
    value {
      list {
        s: "loc:@MobileNet/conv_ds_3/pw_batch_norm/moving_variance"
      }
    }
  }
}
node {
  name: "MobileNet/conv_ds_3/pw_batch_norm/AssignMovingAvg_1/Mul"
  op: "Mul"
  input: "MobileNet/conv_ds_3/pw_batch_norm/AssignMovingAvg_1/Sub"
  input: "MobileNet/conv_ds_3/pw_batch_norm/Const_3"
  attr {
    key: "T"
    value {
      type: DT_FLOAT
    }
  }
  attr {
    key: "_class"
    value {
      list {
        s: "loc:@MobileNet/conv_ds_3/pw_batch_norm/moving_variance"
      }
    }
  }
}
node {
  name: "MobileNet/conv_ds_3/pw_batch_norm/AssignMovingAvg_1"
  op: "AssignSub"
  input: "MobileNet/conv_ds_3/pw_batch_norm/moving_variance"
  input: "MobileNet/conv_ds_3/pw_batch_norm/AssignMovingAvg_1/Mul"
  attr {
    key: "T"
    value {
      type: DT_FLOAT
    }
  }
  attr {
    key: "_class"
    value {
      list {
        s: "loc:@MobileNet/conv_ds_3/pw_batch_norm/moving_variance"
      }
    }
  }
  attr {
    key: "use_locking"
    value {
      b: false
    }
  }
}
node {
  name: "MobileNet/conv_ds_3/pw_batch_norm/Relu"
  op: "Relu"
  input: "MobileNet/conv_ds_3/pw_batch_norm/FusedBatchNorm"
  attr {
    key: "T"
    value {
      type: DT_FLOAT
    }
  }
}
node {
  name: "MobileNet/conv_ds_4/depthwise_conv/depthwise_weights/Initializer/random_uniform/shape"
  op: "Const"
  attr {
    key: "_class"
    value {
      list {
        s: "loc:@MobileNet/conv_ds_4/depthwise_conv/depthwise_weights"
      }
    }
  }
  attr {
    key: "dtype"
    value {
      type: DT_INT32
    }
  }
  attr {
    key: "value"
    value {
      tensor {
        dtype: DT_INT32
        tensor_shape {
          dim {
            size: 4
          }
        }
        tensor_content: "\003\000\000\000\003\000\000\000\200\000\000\000\001\000\000\000"
      }
    }
  }
}
node {
  name: "MobileNet/conv_ds_4/depthwise_conv/depthwise_weights/Initializer/random_uniform/min"
  op: "Const"
  attr {
    key: "_class"
    value {
      list {
        s: "loc:@MobileNet/conv_ds_4/depthwise_conv/depthwise_weights"
      }
    }
  }
  attr {
    key: "dtype"
    value {
      type: DT_FLOAT
    }
  }
  attr {
    key: "value"
    value {
      tensor {
        dtype: DT_FLOAT
        tensor_shape {
        }
        float_val: -0.0718885138630867
      }
    }
  }
}
node {
  name: "MobileNet/conv_ds_4/depthwise_conv/depthwise_weights/Initializer/random_uniform/max"
  op: "Const"
  attr {
    key: "_class"
    value {
      list {
        s: "loc:@MobileNet/conv_ds_4/depthwise_conv/depthwise_weights"
      }
    }
  }
  attr {
    key: "dtype"
    value {
      type: DT_FLOAT
    }
  }
  attr {
    key: "value"
    value {
      tensor {
        dtype: DT_FLOAT
        tensor_shape {
        }
        float_val: 0.0718885138630867
      }
    }
  }
}
node {
  name: "MobileNet/conv_ds_4/depthwise_conv/depthwise_weights/Initializer/random_uniform/RandomUniform"
  op: "RandomUniform"
  input: "MobileNet/conv_ds_4/depthwise_conv/depthwise_weights/Initializer/random_uniform/shape"
  attr {
    key: "T"
    value {
      type: DT_INT32
    }
  }
  attr {
    key: "_class"
    value {
      list {
        s: "loc:@MobileNet/conv_ds_4/depthwise_conv/depthwise_weights"
      }
    }
  }
  attr {
    key: "dtype"
    value {
      type: DT_FLOAT
    }
  }
  attr {
    key: "seed"
    value {
      i: 0
    }
  }
  attr {
    key: "seed2"
    value {
      i: 0
    }
  }
}
node {
  name: "MobileNet/conv_ds_4/depthwise_conv/depthwise_weights/Initializer/random_uniform/sub"
  op: "Sub"
  input: "MobileNet/conv_ds_4/depthwise_conv/depthwise_weights/Initializer/random_uniform/max"
  input: "MobileNet/conv_ds_4/depthwise_conv/depthwise_weights/Initializer/random_uniform/min"
  attr {
    key: "T"
    value {
      type: DT_FLOAT
    }
  }
  attr {
    key: "_class"
    value {
      list {
        s: "loc:@MobileNet/conv_ds_4/depthwise_conv/depthwise_weights"
      }
    }
  }
}
node {
  name: "MobileNet/conv_ds_4/depthwise_conv/depthwise_weights/Initializer/random_uniform/mul"
  op: "Mul"
  input: "MobileNet/conv_ds_4/depthwise_conv/depthwise_weights/Initializer/random_uniform/RandomUniform"
  input: "MobileNet/conv_ds_4/depthwise_conv/depthwise_weights/Initializer/random_uniform/sub"
  attr {
    key: "T"
    value {
      type: DT_FLOAT
    }
  }
  attr {
    key: "_class"
    value {
      list {
        s: "loc:@MobileNet/conv_ds_4/depthwise_conv/depthwise_weights"
      }
    }
  }
}
node {
  name: "MobileNet/conv_ds_4/depthwise_conv/depthwise_weights/Initializer/random_uniform"
  op: "Add"
  input: "MobileNet/conv_ds_4/depthwise_conv/depthwise_weights/Initializer/random_uniform/mul"
  input: "MobileNet/conv_ds_4/depthwise_conv/depthwise_weights/Initializer/random_uniform/min"
  attr {
    key: "T"
    value {
      type: DT_FLOAT
    }
  }
  attr {
    key: "_class"
    value {
      list {
        s: "loc:@MobileNet/conv_ds_4/depthwise_conv/depthwise_weights"
      }
    }
  }
}
node {
  name: "MobileNet/conv_ds_4/depthwise_conv/depthwise_weights"
  op: "VariableV2"
  attr {
    key: "_class"
    value {
      list {
        s: "loc:@MobileNet/conv_ds_4/depthwise_conv/depthwise_weights"
      }
    }
  }
  attr {
    key: "container"
    value {
      s: ""
    }
  }
  attr {
    key: "dtype"
    value {
      type: DT_FLOAT
    }
  }
  attr {
    key: "shape"
    value {
      shape {
        dim {
          size: 3
        }
        dim {
          size: 3
        }
        dim {
          size: 128
        }
        dim {
          size: 1
        }
      }
    }
  }
  attr {
    key: "shared_name"
    value {
      s: ""
    }
  }
}
node {
  name: "MobileNet/conv_ds_4/depthwise_conv/depthwise_weights/Assign"
  op: "Assign"
  input: "MobileNet/conv_ds_4/depthwise_conv/depthwise_weights"
  input: "MobileNet/conv_ds_4/depthwise_conv/depthwise_weights/Initializer/random_uniform"
  attr {
    key: "T"
    value {
      type: DT_FLOAT
    }
  }
  attr {
    key: "_class"
    value {
      list {
        s: "loc:@MobileNet/conv_ds_4/depthwise_conv/depthwise_weights"
      }
    }
  }
  attr {
    key: "use_locking"
    value {
      b: true
    }
  }
  attr {
    key: "validate_shape"
    value {
      b: true
    }
  }
}
node {
  name: "MobileNet/conv_ds_4/depthwise_conv/depthwise_weights/read"
  op: "Identity"
  input: "MobileNet/conv_ds_4/depthwise_conv/depthwise_weights"
  attr {
    key: "T"
    value {
      type: DT_FLOAT
    }
  }
  attr {
    key: "_class"
    value {
      list {
        s: "loc:@MobileNet/conv_ds_4/depthwise_conv/depthwise_weights"
      }
    }
  }
}
node {
  name: "MobileNet/conv_ds_4/depthwise_conv/depthwise/Shape"
  op: "Const"
  attr {
    key: "dtype"
    value {
      type: DT_INT32
    }
  }
  attr {
    key: "value"
    value {
      tensor {
        dtype: DT_INT32
        tensor_shape {
          dim {
            size: 4
          }
        }
        tensor_content: "\003\000\000\000\003\000\000\000\200\000\000\000\001\000\000\000"
      }
    }
  }
}
node {
  name: "MobileNet/conv_ds_4/depthwise_conv/depthwise/dilation_rate"
  op: "Const"
  attr {
    key: "dtype"
    value {
      type: DT_INT32
    }
  }
  attr {
    key: "value"
    value {
      tensor {
        dtype: DT_INT32
        tensor_shape {
          dim {
            size: 2
          }
        }
        tensor_content: "\001\000\000\000\001\000\000\000"
      }
    }
  }
}
node {
  name: "MobileNet/conv_ds_4/depthwise_conv/depthwise"
  op: "DepthwiseConv2dNative"
  input: "MobileNet/conv_ds_3/pw_batch_norm/Relu"
  input: "MobileNet/conv_ds_4/depthwise_conv/depthwise_weights/read"
  attr {
    key: "T"
    value {
      type: DT_FLOAT
    }
  }
  attr {
    key: "data_format"
    value {
      s: "NHWC"
    }
  }
  attr {
    key: "padding"
    value {
      s: "SAME"
    }
  }
  attr {
    key: "strides"
    value {
      list {
        i: 1
        i: 1
        i: 1
        i: 1
      }
    }
  }
}
node {
  name: "MobileNet/conv_ds_4/depthwise_conv/biases/Initializer/zeros"
  op: "Const"
  attr {
    key: "_class"
    value {
      list {
        s: "loc:@MobileNet/conv_ds_4/depthwise_conv/biases"
      }
    }
  }
  attr {
    key: "dtype"
    value {
      type: DT_FLOAT
    }
  }
  attr {
    key: "value"
    value {
      tensor {
        dtype: DT_FLOAT
        tensor_shape {
          dim {
            size: 128
          }
        }
        float_val: 0.0
      }
    }
  }
}
node {
  name: "MobileNet/conv_ds_4/depthwise_conv/biases"
  op: "VariableV2"
  attr {
    key: "_class"
    value {
      list {
        s: "loc:@MobileNet/conv_ds_4/depthwise_conv/biases"
      }
    }
  }
  attr {
    key: "container"
    value {
      s: ""
    }
  }
  attr {
    key: "dtype"
    value {
      type: DT_FLOAT
    }
  }
  attr {
    key: "shape"
    value {
      shape {
        dim {
          size: 128
        }
      }
    }
  }
  attr {
    key: "shared_name"
    value {
      s: ""
    }
  }
}
node {
  name: "MobileNet/conv_ds_4/depthwise_conv/biases/Assign"
  op: "Assign"
  input: "MobileNet/conv_ds_4/depthwise_conv/biases"
  input: "MobileNet/conv_ds_4/depthwise_conv/biases/Initializer/zeros"
  attr {
    key: "T"
    value {
      type: DT_FLOAT
    }
  }
  attr {
    key: "_class"
    value {
      list {
        s: "loc:@MobileNet/conv_ds_4/depthwise_conv/biases"
      }
    }
  }
  attr {
    key: "use_locking"
    value {
      b: true
    }
  }
  attr {
    key: "validate_shape"
    value {
      b: true
    }
  }
}
node {
  name: "MobileNet/conv_ds_4/depthwise_conv/biases/read"
  op: "Identity"
  input: "MobileNet/conv_ds_4/depthwise_conv/biases"
  attr {
    key: "T"
    value {
      type: DT_FLOAT
    }
  }
  attr {
    key: "_class"
    value {
      list {
        s: "loc:@MobileNet/conv_ds_4/depthwise_conv/biases"
      }
    }
  }
}
node {
  name: "MobileNet/conv_ds_4/depthwise_conv/BiasAdd"
  op: "BiasAdd"
  input: "MobileNet/conv_ds_4/depthwise_conv/depthwise"
  input: "MobileNet/conv_ds_4/depthwise_conv/biases/read"
  attr {
    key: "T"
    value {
      type: DT_FLOAT
    }
  }
  attr {
    key: "data_format"
    value {
      s: "NHWC"
    }
  }
}
node {
  name: "MobileNet/conv_ds_4/dw_batch_norm/Const"
  op: "Const"
  attr {
    key: "dtype"
    value {
      type: DT_FLOAT
    }
  }
  attr {
    key: "value"
    value {
      tensor {
        dtype: DT_FLOAT
        tensor_shape {
          dim {
            size: 128
          }
        }
        float_val: 1.0
      }
    }
  }
}
node {
  name: "MobileNet/conv_ds_4/dw_batch_norm/beta/Initializer/zeros"
  op: "Const"
  attr {
    key: "_class"
    value {
      list {
        s: "loc:@MobileNet/conv_ds_4/dw_batch_norm/beta"
      }
    }
  }
  attr {
    key: "dtype"
    value {
      type: DT_FLOAT
    }
  }
  attr {
    key: "value"
    value {
      tensor {
        dtype: DT_FLOAT
        tensor_shape {
          dim {
            size: 128
          }
        }
        float_val: 0.0
      }
    }
  }
}
node {
  name: "MobileNet/conv_ds_4/dw_batch_norm/beta"
  op: "VariableV2"
  attr {
    key: "_class"
    value {
      list {
        s: "loc:@MobileNet/conv_ds_4/dw_batch_norm/beta"
      }
    }
  }
  attr {
    key: "container"
    value {
      s: ""
    }
  }
  attr {
    key: "dtype"
    value {
      type: DT_FLOAT
    }
  }
  attr {
    key: "shape"
    value {
      shape {
        dim {
          size: 128
        }
      }
    }
  }
  attr {
    key: "shared_name"
    value {
      s: ""
    }
  }
}
node {
  name: "MobileNet/conv_ds_4/dw_batch_norm/beta/Assign"
  op: "Assign"
  input: "MobileNet/conv_ds_4/dw_batch_norm/beta"
  input: "MobileNet/conv_ds_4/dw_batch_norm/beta/Initializer/zeros"
  attr {
    key: "T"
    value {
      type: DT_FLOAT
    }
  }
  attr {
    key: "_class"
    value {
      list {
        s: "loc:@MobileNet/conv_ds_4/dw_batch_norm/beta"
      }
    }
  }
  attr {
    key: "use_locking"
    value {
      b: true
    }
  }
  attr {
    key: "validate_shape"
    value {
      b: true
    }
  }
}
node {
  name: "MobileNet/conv_ds_4/dw_batch_norm/beta/read"
  op: "Identity"
  input: "MobileNet/conv_ds_4/dw_batch_norm/beta"
  attr {
    key: "T"
    value {
      type: DT_FLOAT
    }
  }
  attr {
    key: "_class"
    value {
      list {
        s: "loc:@MobileNet/conv_ds_4/dw_batch_norm/beta"
      }
    }
  }
}
node {
  name: "MobileNet/conv_ds_4/dw_batch_norm/moving_mean/Initializer/zeros"
  op: "Const"
  attr {
    key: "_class"
    value {
      list {
        s: "loc:@MobileNet/conv_ds_4/dw_batch_norm/moving_mean"
      }
    }
  }
  attr {
    key: "dtype"
    value {
      type: DT_FLOAT
    }
  }
  attr {
    key: "value"
    value {
      tensor {
        dtype: DT_FLOAT
        tensor_shape {
          dim {
            size: 128
          }
        }
        float_val: 0.0
      }
    }
  }
}
node {
  name: "MobileNet/conv_ds_4/dw_batch_norm/moving_mean"
  op: "VariableV2"
  attr {
    key: "_class"
    value {
      list {
        s: "loc:@MobileNet/conv_ds_4/dw_batch_norm/moving_mean"
      }
    }
  }
  attr {
    key: "container"
    value {
      s: ""
    }
  }
  attr {
    key: "dtype"
    value {
      type: DT_FLOAT
    }
  }
  attr {
    key: "shape"
    value {
      shape {
        dim {
          size: 128
        }
      }
    }
  }
  attr {
    key: "shared_name"
    value {
      s: ""
    }
  }
}
node {
  name: "MobileNet/conv_ds_4/dw_batch_norm/moving_mean/Assign"
  op: "Assign"
  input: "MobileNet/conv_ds_4/dw_batch_norm/moving_mean"
  input: "MobileNet/conv_ds_4/dw_batch_norm/moving_mean/Initializer/zeros"
  attr {
    key: "T"
    value {
      type: DT_FLOAT
    }
  }
  attr {
    key: "_class"
    value {
      list {
        s: "loc:@MobileNet/conv_ds_4/dw_batch_norm/moving_mean"
      }
    }
  }
  attr {
    key: "use_locking"
    value {
      b: true
    }
  }
  attr {
    key: "validate_shape"
    value {
      b: true
    }
  }
}
node {
  name: "MobileNet/conv_ds_4/dw_batch_norm/moving_mean/read"
  op: "Identity"
  input: "MobileNet/conv_ds_4/dw_batch_norm/moving_mean"
  attr {
    key: "T"
    value {
      type: DT_FLOAT
    }
  }
  attr {
    key: "_class"
    value {
      list {
        s: "loc:@MobileNet/conv_ds_4/dw_batch_norm/moving_mean"
      }
    }
  }
}
node {
  name: "MobileNet/conv_ds_4/dw_batch_norm/moving_variance/Initializer/ones"
  op: "Const"
  attr {
    key: "_class"
    value {
      list {
        s: "loc:@MobileNet/conv_ds_4/dw_batch_norm/moving_variance"
      }
    }
  }
  attr {
    key: "dtype"
    value {
      type: DT_FLOAT
    }
  }
  attr {
    key: "value"
    value {
      tensor {
        dtype: DT_FLOAT
        tensor_shape {
          dim {
            size: 128
          }
        }
        float_val: 1.0
      }
    }
  }
}
node {
  name: "MobileNet/conv_ds_4/dw_batch_norm/moving_variance"
  op: "VariableV2"
  attr {
    key: "_class"
    value {
      list {
        s: "loc:@MobileNet/conv_ds_4/dw_batch_norm/moving_variance"
      }
    }
  }
  attr {
    key: "container"
    value {
      s: ""
    }
  }
  attr {
    key: "dtype"
    value {
      type: DT_FLOAT
    }
  }
  attr {
    key: "shape"
    value {
      shape {
        dim {
          size: 128
        }
      }
    }
  }
  attr {
    key: "shared_name"
    value {
      s: ""
    }
  }
}
node {
  name: "MobileNet/conv_ds_4/dw_batch_norm/moving_variance/Assign"
  op: "Assign"
  input: "MobileNet/conv_ds_4/dw_batch_norm/moving_variance"
  input: "MobileNet/conv_ds_4/dw_batch_norm/moving_variance/Initializer/ones"
  attr {
    key: "T"
    value {
      type: DT_FLOAT
    }
  }
  attr {
    key: "_class"
    value {
      list {
        s: "loc:@MobileNet/conv_ds_4/dw_batch_norm/moving_variance"
      }
    }
  }
  attr {
    key: "use_locking"
    value {
      b: true
    }
  }
  attr {
    key: "validate_shape"
    value {
      b: true
    }
  }
}
node {
  name: "MobileNet/conv_ds_4/dw_batch_norm/moving_variance/read"
  op: "Identity"
  input: "MobileNet/conv_ds_4/dw_batch_norm/moving_variance"
  attr {
    key: "T"
    value {
      type: DT_FLOAT
    }
  }
  attr {
    key: "_class"
    value {
      list {
        s: "loc:@MobileNet/conv_ds_4/dw_batch_norm/moving_variance"
      }
    }
  }
}
node {
  name: "MobileNet/conv_ds_4/dw_batch_norm/Const_1"
  op: "Const"
  attr {
    key: "dtype"
    value {
      type: DT_FLOAT
    }
  }
  attr {
    key: "value"
    value {
      tensor {
        dtype: DT_FLOAT
        tensor_shape {
          dim {
          }
        }
      }
    }
  }
}
node {
  name: "MobileNet/conv_ds_4/dw_batch_norm/Const_2"
  op: "Const"
  attr {
    key: "dtype"
    value {
      type: DT_FLOAT
    }
  }
  attr {
    key: "value"
    value {
      tensor {
        dtype: DT_FLOAT
        tensor_shape {
          dim {
          }
        }
      }
    }
  }
}
node {
  name: "MobileNet/conv_ds_4/dw_batch_norm/FusedBatchNorm"
  op: "FusedBatchNorm"
  input: "MobileNet/conv_ds_4/depthwise_conv/BiasAdd"
  input: "MobileNet/conv_ds_4/dw_batch_norm/Const"
  input: "MobileNet/conv_ds_4/dw_batch_norm/beta/read"
  input: "MobileNet/conv_ds_4/dw_batch_norm/Const_1"
  input: "MobileNet/conv_ds_4/dw_batch_norm/Const_2"
  attr {
    key: "T"
    value {
      type: DT_FLOAT
    }
  }
  attr {
    key: "data_format"
    value {
      s: "NHWC"
    }
  }
  attr {
    key: "epsilon"
    value {
      f: 0.0010000000474974513
    }
  }
  attr {
    key: "is_training"
    value {
      b: true
    }
  }
}
node {
  name: "MobileNet/conv_ds_4/dw_batch_norm/Const_3"
  op: "Const"
  attr {
    key: "dtype"
    value {
      type: DT_FLOAT
    }
  }
  attr {
    key: "value"
    value {
      tensor {
        dtype: DT_FLOAT
        tensor_shape {
        }
        float_val: 0.0010000000474974513
      }
    }
  }
}
node {
  name: "MobileNet/conv_ds_4/dw_batch_norm/AssignMovingAvg/read"
  op: "Identity"
  input: "MobileNet/conv_ds_4/dw_batch_norm/moving_mean"
  attr {
    key: "T"
    value {
      type: DT_FLOAT
    }
  }
  attr {
    key: "_class"
    value {
      list {
        s: "loc:@MobileNet/conv_ds_4/dw_batch_norm/moving_mean"
      }
    }
  }
}
node {
  name: "MobileNet/conv_ds_4/dw_batch_norm/AssignMovingAvg/Sub"
  op: "Sub"
  input: "MobileNet/conv_ds_4/dw_batch_norm/AssignMovingAvg/read"
  input: "MobileNet/conv_ds_4/dw_batch_norm/FusedBatchNorm:1"
  attr {
    key: "T"
    value {
      type: DT_FLOAT
    }
  }
  attr {
    key: "_class"
    value {
      list {
        s: "loc:@MobileNet/conv_ds_4/dw_batch_norm/moving_mean"
      }
    }
  }
}
node {
  name: "MobileNet/conv_ds_4/dw_batch_norm/AssignMovingAvg/Mul"
  op: "Mul"
  input: "MobileNet/conv_ds_4/dw_batch_norm/AssignMovingAvg/Sub"
  input: "MobileNet/conv_ds_4/dw_batch_norm/Const_3"
  attr {
    key: "T"
    value {
      type: DT_FLOAT
    }
  }
  attr {
    key: "_class"
    value {
      list {
        s: "loc:@MobileNet/conv_ds_4/dw_batch_norm/moving_mean"
      }
    }
  }
}
node {
  name: "MobileNet/conv_ds_4/dw_batch_norm/AssignMovingAvg"
  op: "AssignSub"
  input: "MobileNet/conv_ds_4/dw_batch_norm/moving_mean"
  input: "MobileNet/conv_ds_4/dw_batch_norm/AssignMovingAvg/Mul"
  attr {
    key: "T"
    value {
      type: DT_FLOAT
    }
  }
  attr {
    key: "_class"
    value {
      list {
        s: "loc:@MobileNet/conv_ds_4/dw_batch_norm/moving_mean"
      }
    }
  }
  attr {
    key: "use_locking"
    value {
      b: false
    }
  }
}
node {
  name: "MobileNet/conv_ds_4/dw_batch_norm/AssignMovingAvg_1/read"
  op: "Identity"
  input: "MobileNet/conv_ds_4/dw_batch_norm/moving_variance"
  attr {
    key: "T"
    value {
      type: DT_FLOAT
    }
  }
  attr {
    key: "_class"
    value {
      list {
        s: "loc:@MobileNet/conv_ds_4/dw_batch_norm/moving_variance"
      }
    }
  }
}
node {
  name: "MobileNet/conv_ds_4/dw_batch_norm/AssignMovingAvg_1/Sub"
  op: "Sub"
  input: "MobileNet/conv_ds_4/dw_batch_norm/AssignMovingAvg_1/read"
  input: "MobileNet/conv_ds_4/dw_batch_norm/FusedBatchNorm:2"
  attr {
    key: "T"
    value {
      type: DT_FLOAT
    }
  }
  attr {
    key: "_class"
    value {
      list {
        s: "loc:@MobileNet/conv_ds_4/dw_batch_norm/moving_variance"
      }
    }
  }
}
node {
  name: "MobileNet/conv_ds_4/dw_batch_norm/AssignMovingAvg_1/Mul"
  op: "Mul"
  input: "MobileNet/conv_ds_4/dw_batch_norm/AssignMovingAvg_1/Sub"
  input: "MobileNet/conv_ds_4/dw_batch_norm/Const_3"
  attr {
    key: "T"
    value {
      type: DT_FLOAT
    }
  }
  attr {
    key: "_class"
    value {
      list {
        s: "loc:@MobileNet/conv_ds_4/dw_batch_norm/moving_variance"
      }
    }
  }
}
node {
  name: "MobileNet/conv_ds_4/dw_batch_norm/AssignMovingAvg_1"
  op: "AssignSub"
  input: "MobileNet/conv_ds_4/dw_batch_norm/moving_variance"
  input: "MobileNet/conv_ds_4/dw_batch_norm/AssignMovingAvg_1/Mul"
  attr {
    key: "T"
    value {
      type: DT_FLOAT
    }
  }
  attr {
    key: "_class"
    value {
      list {
        s: "loc:@MobileNet/conv_ds_4/dw_batch_norm/moving_variance"
      }
    }
  }
  attr {
    key: "use_locking"
    value {
      b: false
    }
  }
}
node {
  name: "MobileNet/conv_ds_4/dw_batch_norm/Relu"
  op: "Relu"
  input: "MobileNet/conv_ds_4/dw_batch_norm/FusedBatchNorm"
  attr {
    key: "T"
    value {
      type: DT_FLOAT
    }
  }
}
node {
  name: "MobileNet/conv_ds_4/pointwise_conv/weights/Initializer/random_uniform/shape"
  op: "Const"
  attr {
    key: "_class"
    value {
      list {
        s: "loc:@MobileNet/conv_ds_4/pointwise_conv/weights"
      }
    }
  }
  attr {
    key: "dtype"
    value {
      type: DT_INT32
    }
  }
  attr {
    key: "value"
    value {
      tensor {
        dtype: DT_INT32
        tensor_shape {
          dim {
            size: 4
          }
        }
        tensor_content: "\001\000\000\000\001\000\000\000\200\000\000\000\200\000\000\000"
      }
    }
  }
}
node {
  name: "MobileNet/conv_ds_4/pointwise_conv/weights/Initializer/random_uniform/min"
  op: "Const"
  attr {
    key: "_class"
    value {
      list {
        s: "loc:@MobileNet/conv_ds_4/pointwise_conv/weights"
      }
    }
  }
  attr {
    key: "dtype"
    value {
      type: DT_FLOAT
    }
  }
  attr {
    key: "value"
    value {
      tensor {
        dtype: DT_FLOAT
        tensor_shape {
        }
        float_val: -0.1530931144952774
      }
    }
  }
}
node {
  name: "MobileNet/conv_ds_4/pointwise_conv/weights/Initializer/random_uniform/max"
  op: "Const"
  attr {
    key: "_class"
    value {
      list {
        s: "loc:@MobileNet/conv_ds_4/pointwise_conv/weights"
      }
    }
  }
  attr {
    key: "dtype"
    value {
      type: DT_FLOAT
    }
  }
  attr {
    key: "value"
    value {
      tensor {
        dtype: DT_FLOAT
        tensor_shape {
        }
        float_val: 0.1530931144952774
      }
    }
  }
}
node {
  name: "MobileNet/conv_ds_4/pointwise_conv/weights/Initializer/random_uniform/RandomUniform"
  op: "RandomUniform"
  input: "MobileNet/conv_ds_4/pointwise_conv/weights/Initializer/random_uniform/shape"
  attr {
    key: "T"
    value {
      type: DT_INT32
    }
  }
  attr {
    key: "_class"
    value {
      list {
        s: "loc:@MobileNet/conv_ds_4/pointwise_conv/weights"
      }
    }
  }
  attr {
    key: "dtype"
    value {
      type: DT_FLOAT
    }
  }
  attr {
    key: "seed"
    value {
      i: 0
    }
  }
  attr {
    key: "seed2"
    value {
      i: 0
    }
  }
}
node {
  name: "MobileNet/conv_ds_4/pointwise_conv/weights/Initializer/random_uniform/sub"
  op: "Sub"
  input: "MobileNet/conv_ds_4/pointwise_conv/weights/Initializer/random_uniform/max"
  input: "MobileNet/conv_ds_4/pointwise_conv/weights/Initializer/random_uniform/min"
  attr {
    key: "T"
    value {
      type: DT_FLOAT
    }
  }
  attr {
    key: "_class"
    value {
      list {
        s: "loc:@MobileNet/conv_ds_4/pointwise_conv/weights"
      }
    }
  }
}
node {
  name: "MobileNet/conv_ds_4/pointwise_conv/weights/Initializer/random_uniform/mul"
  op: "Mul"
  input: "MobileNet/conv_ds_4/pointwise_conv/weights/Initializer/random_uniform/RandomUniform"
  input: "MobileNet/conv_ds_4/pointwise_conv/weights/Initializer/random_uniform/sub"
  attr {
    key: "T"
    value {
      type: DT_FLOAT
    }
  }
  attr {
    key: "_class"
    value {
      list {
        s: "loc:@MobileNet/conv_ds_4/pointwise_conv/weights"
      }
    }
  }
}
node {
  name: "MobileNet/conv_ds_4/pointwise_conv/weights/Initializer/random_uniform"
  op: "Add"
  input: "MobileNet/conv_ds_4/pointwise_conv/weights/Initializer/random_uniform/mul"
  input: "MobileNet/conv_ds_4/pointwise_conv/weights/Initializer/random_uniform/min"
  attr {
    key: "T"
    value {
      type: DT_FLOAT
    }
  }
  attr {
    key: "_class"
    value {
      list {
        s: "loc:@MobileNet/conv_ds_4/pointwise_conv/weights"
      }
    }
  }
}
node {
  name: "MobileNet/conv_ds_4/pointwise_conv/weights"
  op: "VariableV2"
  attr {
    key: "_class"
    value {
      list {
        s: "loc:@MobileNet/conv_ds_4/pointwise_conv/weights"
      }
    }
  }
  attr {
    key: "container"
    value {
      s: ""
    }
  }
  attr {
    key: "dtype"
    value {
      type: DT_FLOAT
    }
  }
  attr {
    key: "shape"
    value {
      shape {
        dim {
          size: 1
        }
        dim {
          size: 1
        }
        dim {
          size: 128
        }
        dim {
          size: 128
        }
      }
    }
  }
  attr {
    key: "shared_name"
    value {
      s: ""
    }
  }
}
node {
  name: "MobileNet/conv_ds_4/pointwise_conv/weights/Assign"
  op: "Assign"
  input: "MobileNet/conv_ds_4/pointwise_conv/weights"
  input: "MobileNet/conv_ds_4/pointwise_conv/weights/Initializer/random_uniform"
  attr {
    key: "T"
    value {
      type: DT_FLOAT
    }
  }
  attr {
    key: "_class"
    value {
      list {
        s: "loc:@MobileNet/conv_ds_4/pointwise_conv/weights"
      }
    }
  }
  attr {
    key: "use_locking"
    value {
      b: true
    }
  }
  attr {
    key: "validate_shape"
    value {
      b: true
    }
  }
}
node {
  name: "MobileNet/conv_ds_4/pointwise_conv/weights/read"
  op: "Identity"
  input: "MobileNet/conv_ds_4/pointwise_conv/weights"
  attr {
    key: "T"
    value {
      type: DT_FLOAT
    }
  }
  attr {
    key: "_class"
    value {
      list {
        s: "loc:@MobileNet/conv_ds_4/pointwise_conv/weights"
      }
    }
  }
}
node {
  name: "MobileNet/conv_ds_4/pointwise_conv/biases/Initializer/zeros"
  op: "Const"
  attr {
    key: "_class"
    value {
      list {
        s: "loc:@MobileNet/conv_ds_4/pointwise_conv/biases"
      }
    }
  }
  attr {
    key: "dtype"
    value {
      type: DT_FLOAT
    }
  }
  attr {
    key: "value"
    value {
      tensor {
        dtype: DT_FLOAT
        tensor_shape {
          dim {
            size: 128
          }
        }
        float_val: 0.0
      }
    }
  }
}
node {
  name: "MobileNet/conv_ds_4/pointwise_conv/biases"
  op: "VariableV2"
  attr {
    key: "_class"
    value {
      list {
        s: "loc:@MobileNet/conv_ds_4/pointwise_conv/biases"
      }
    }
  }
  attr {
    key: "container"
    value {
      s: ""
    }
  }
  attr {
    key: "dtype"
    value {
      type: DT_FLOAT
    }
  }
  attr {
    key: "shape"
    value {
      shape {
        dim {
          size: 128
        }
      }
    }
  }
  attr {
    key: "shared_name"
    value {
      s: ""
    }
  }
}
node {
  name: "MobileNet/conv_ds_4/pointwise_conv/biases/Assign"
  op: "Assign"
  input: "MobileNet/conv_ds_4/pointwise_conv/biases"
  input: "MobileNet/conv_ds_4/pointwise_conv/biases/Initializer/zeros"
  attr {
    key: "T"
    value {
      type: DT_FLOAT
    }
  }
  attr {
    key: "_class"
    value {
      list {
        s: "loc:@MobileNet/conv_ds_4/pointwise_conv/biases"
      }
    }
  }
  attr {
    key: "use_locking"
    value {
      b: true
    }
  }
  attr {
    key: "validate_shape"
    value {
      b: true
    }
  }
}
node {
  name: "MobileNet/conv_ds_4/pointwise_conv/biases/read"
  op: "Identity"
  input: "MobileNet/conv_ds_4/pointwise_conv/biases"
  attr {
    key: "T"
    value {
      type: DT_FLOAT
    }
  }
  attr {
    key: "_class"
    value {
      list {
        s: "loc:@MobileNet/conv_ds_4/pointwise_conv/biases"
      }
    }
  }
}
node {
  name: "MobileNet/conv_ds_4/pointwise_conv/dilation_rate"
  op: "Const"
  attr {
    key: "dtype"
    value {
      type: DT_INT32
    }
  }
  attr {
    key: "value"
    value {
      tensor {
        dtype: DT_INT32
        tensor_shape {
          dim {
            size: 2
          }
        }
        tensor_content: "\001\000\000\000\001\000\000\000"
      }
    }
  }
}
node {
  name: "MobileNet/conv_ds_4/pointwise_conv/Conv2D"
  op: "Conv2D"
  input: "MobileNet/conv_ds_4/dw_batch_norm/Relu"
  input: "MobileNet/conv_ds_4/pointwise_conv/weights/read"
  attr {
    key: "T"
    value {
      type: DT_FLOAT
    }
  }
  attr {
    key: "data_format"
    value {
      s: "NHWC"
    }
  }
  attr {
    key: "padding"
    value {
      s: "SAME"
    }
  }
  attr {
    key: "strides"
    value {
      list {
        i: 1
        i: 1
        i: 1
        i: 1
      }
    }
  }
  attr {
    key: "use_cudnn_on_gpu"
    value {
      b: true
    }
  }
}
node {
  name: "MobileNet/conv_ds_4/pointwise_conv/BiasAdd"
  op: "BiasAdd"
  input: "MobileNet/conv_ds_4/pointwise_conv/Conv2D"
  input: "MobileNet/conv_ds_4/pointwise_conv/biases/read"
  attr {
    key: "T"
    value {
      type: DT_FLOAT
    }
  }
  attr {
    key: "data_format"
    value {
      s: "NHWC"
    }
  }
}
node {
  name: "MobileNet/conv_ds_4/pw_batch_norm/Const"
  op: "Const"
  attr {
    key: "dtype"
    value {
      type: DT_FLOAT
    }
  }
  attr {
    key: "value"
    value {
      tensor {
        dtype: DT_FLOAT
        tensor_shape {
          dim {
            size: 128
          }
        }
        float_val: 1.0
      }
    }
  }
}
node {
  name: "MobileNet/conv_ds_4/pw_batch_norm/beta/Initializer/zeros"
  op: "Const"
  attr {
    key: "_class"
    value {
      list {
        s: "loc:@MobileNet/conv_ds_4/pw_batch_norm/beta"
      }
    }
  }
  attr {
    key: "dtype"
    value {
      type: DT_FLOAT
    }
  }
  attr {
    key: "value"
    value {
      tensor {
        dtype: DT_FLOAT
        tensor_shape {
          dim {
            size: 128
          }
        }
        float_val: 0.0
      }
    }
  }
}
node {
  name: "MobileNet/conv_ds_4/pw_batch_norm/beta"
  op: "VariableV2"
  attr {
    key: "_class"
    value {
      list {
        s: "loc:@MobileNet/conv_ds_4/pw_batch_norm/beta"
      }
    }
  }
  attr {
    key: "container"
    value {
      s: ""
    }
  }
  attr {
    key: "dtype"
    value {
      type: DT_FLOAT
    }
  }
  attr {
    key: "shape"
    value {
      shape {
        dim {
          size: 128
        }
      }
    }
  }
  attr {
    key: "shared_name"
    value {
      s: ""
    }
  }
}
node {
  name: "MobileNet/conv_ds_4/pw_batch_norm/beta/Assign"
  op: "Assign"
  input: "MobileNet/conv_ds_4/pw_batch_norm/beta"
  input: "MobileNet/conv_ds_4/pw_batch_norm/beta/Initializer/zeros"
  attr {
    key: "T"
    value {
      type: DT_FLOAT
    }
  }
  attr {
    key: "_class"
    value {
      list {
        s: "loc:@MobileNet/conv_ds_4/pw_batch_norm/beta"
      }
    }
  }
  attr {
    key: "use_locking"
    value {
      b: true
    }
  }
  attr {
    key: "validate_shape"
    value {
      b: true
    }
  }
}
node {
  name: "MobileNet/conv_ds_4/pw_batch_norm/beta/read"
  op: "Identity"
  input: "MobileNet/conv_ds_4/pw_batch_norm/beta"
  attr {
    key: "T"
    value {
      type: DT_FLOAT
    }
  }
  attr {
    key: "_class"
    value {
      list {
        s: "loc:@MobileNet/conv_ds_4/pw_batch_norm/beta"
      }
    }
  }
}
node {
  name: "MobileNet/conv_ds_4/pw_batch_norm/moving_mean/Initializer/zeros"
  op: "Const"
  attr {
    key: "_class"
    value {
      list {
        s: "loc:@MobileNet/conv_ds_4/pw_batch_norm/moving_mean"
      }
    }
  }
  attr {
    key: "dtype"
    value {
      type: DT_FLOAT
    }
  }
  attr {
    key: "value"
    value {
      tensor {
        dtype: DT_FLOAT
        tensor_shape {
          dim {
            size: 128
          }
        }
        float_val: 0.0
      }
    }
  }
}
node {
  name: "MobileNet/conv_ds_4/pw_batch_norm/moving_mean"
  op: "VariableV2"
  attr {
    key: "_class"
    value {
      list {
        s: "loc:@MobileNet/conv_ds_4/pw_batch_norm/moving_mean"
      }
    }
  }
  attr {
    key: "container"
    value {
      s: ""
    }
  }
  attr {
    key: "dtype"
    value {
      type: DT_FLOAT
    }
  }
  attr {
    key: "shape"
    value {
      shape {
        dim {
          size: 128
        }
      }
    }
  }
  attr {
    key: "shared_name"
    value {
      s: ""
    }
  }
}
node {
  name: "MobileNet/conv_ds_4/pw_batch_norm/moving_mean/Assign"
  op: "Assign"
  input: "MobileNet/conv_ds_4/pw_batch_norm/moving_mean"
  input: "MobileNet/conv_ds_4/pw_batch_norm/moving_mean/Initializer/zeros"
  attr {
    key: "T"
    value {
      type: DT_FLOAT
    }
  }
  attr {
    key: "_class"
    value {
      list {
        s: "loc:@MobileNet/conv_ds_4/pw_batch_norm/moving_mean"
      }
    }
  }
  attr {
    key: "use_locking"
    value {
      b: true
    }
  }
  attr {
    key: "validate_shape"
    value {
      b: true
    }
  }
}
node {
  name: "MobileNet/conv_ds_4/pw_batch_norm/moving_mean/read"
  op: "Identity"
  input: "MobileNet/conv_ds_4/pw_batch_norm/moving_mean"
  attr {
    key: "T"
    value {
      type: DT_FLOAT
    }
  }
  attr {
    key: "_class"
    value {
      list {
        s: "loc:@MobileNet/conv_ds_4/pw_batch_norm/moving_mean"
      }
    }
  }
}
node {
  name: "MobileNet/conv_ds_4/pw_batch_norm/moving_variance/Initializer/ones"
  op: "Const"
  attr {
    key: "_class"
    value {
      list {
        s: "loc:@MobileNet/conv_ds_4/pw_batch_norm/moving_variance"
      }
    }
  }
  attr {
    key: "dtype"
    value {
      type: DT_FLOAT
    }
  }
  attr {
    key: "value"
    value {
      tensor {
        dtype: DT_FLOAT
        tensor_shape {
          dim {
            size: 128
          }
        }
        float_val: 1.0
      }
    }
  }
}
node {
  name: "MobileNet/conv_ds_4/pw_batch_norm/moving_variance"
  op: "VariableV2"
  attr {
    key: "_class"
    value {
      list {
        s: "loc:@MobileNet/conv_ds_4/pw_batch_norm/moving_variance"
      }
    }
  }
  attr {
    key: "container"
    value {
      s: ""
    }
  }
  attr {
    key: "dtype"
    value {
      type: DT_FLOAT
    }
  }
  attr {
    key: "shape"
    value {
      shape {
        dim {
          size: 128
        }
      }
    }
  }
  attr {
    key: "shared_name"
    value {
      s: ""
    }
  }
}
node {
  name: "MobileNet/conv_ds_4/pw_batch_norm/moving_variance/Assign"
  op: "Assign"
  input: "MobileNet/conv_ds_4/pw_batch_norm/moving_variance"
  input: "MobileNet/conv_ds_4/pw_batch_norm/moving_variance/Initializer/ones"
  attr {
    key: "T"
    value {
      type: DT_FLOAT
    }
  }
  attr {
    key: "_class"
    value {
      list {
        s: "loc:@MobileNet/conv_ds_4/pw_batch_norm/moving_variance"
      }
    }
  }
  attr {
    key: "use_locking"
    value {
      b: true
    }
  }
  attr {
    key: "validate_shape"
    value {
      b: true
    }
  }
}
node {
  name: "MobileNet/conv_ds_4/pw_batch_norm/moving_variance/read"
  op: "Identity"
  input: "MobileNet/conv_ds_4/pw_batch_norm/moving_variance"
  attr {
    key: "T"
    value {
      type: DT_FLOAT
    }
  }
  attr {
    key: "_class"
    value {
      list {
        s: "loc:@MobileNet/conv_ds_4/pw_batch_norm/moving_variance"
      }
    }
  }
}
node {
  name: "MobileNet/conv_ds_4/pw_batch_norm/Const_1"
  op: "Const"
  attr {
    key: "dtype"
    value {
      type: DT_FLOAT
    }
  }
  attr {
    key: "value"
    value {
      tensor {
        dtype: DT_FLOAT
        tensor_shape {
          dim {
          }
        }
      }
    }
  }
}
node {
  name: "MobileNet/conv_ds_4/pw_batch_norm/Const_2"
  op: "Const"
  attr {
    key: "dtype"
    value {
      type: DT_FLOAT
    }
  }
  attr {
    key: "value"
    value {
      tensor {
        dtype: DT_FLOAT
        tensor_shape {
          dim {
          }
        }
      }
    }
  }
}
node {
  name: "MobileNet/conv_ds_4/pw_batch_norm/FusedBatchNorm"
  op: "FusedBatchNorm"
  input: "MobileNet/conv_ds_4/pointwise_conv/BiasAdd"
  input: "MobileNet/conv_ds_4/pw_batch_norm/Const"
  input: "MobileNet/conv_ds_4/pw_batch_norm/beta/read"
  input: "MobileNet/conv_ds_4/pw_batch_norm/Const_1"
  input: "MobileNet/conv_ds_4/pw_batch_norm/Const_2"
  attr {
    key: "T"
    value {
      type: DT_FLOAT
    }
  }
  attr {
    key: "data_format"
    value {
      s: "NHWC"
    }
  }
  attr {
    key: "epsilon"
    value {
      f: 0.0010000000474974513
    }
  }
  attr {
    key: "is_training"
    value {
      b: true
    }
  }
}
node {
  name: "MobileNet/conv_ds_4/pw_batch_norm/Const_3"
  op: "Const"
  attr {
    key: "dtype"
    value {
      type: DT_FLOAT
    }
  }
  attr {
    key: "value"
    value {
      tensor {
        dtype: DT_FLOAT
        tensor_shape {
        }
        float_val: 0.0010000000474974513
      }
    }
  }
}
node {
  name: "MobileNet/conv_ds_4/pw_batch_norm/AssignMovingAvg/read"
  op: "Identity"
  input: "MobileNet/conv_ds_4/pw_batch_norm/moving_mean"
  attr {
    key: "T"
    value {
      type: DT_FLOAT
    }
  }
  attr {
    key: "_class"
    value {
      list {
        s: "loc:@MobileNet/conv_ds_4/pw_batch_norm/moving_mean"
      }
    }
  }
}
node {
  name: "MobileNet/conv_ds_4/pw_batch_norm/AssignMovingAvg/Sub"
  op: "Sub"
  input: "MobileNet/conv_ds_4/pw_batch_norm/AssignMovingAvg/read"
  input: "MobileNet/conv_ds_4/pw_batch_norm/FusedBatchNorm:1"
  attr {
    key: "T"
    value {
      type: DT_FLOAT
    }
  }
  attr {
    key: "_class"
    value {
      list {
        s: "loc:@MobileNet/conv_ds_4/pw_batch_norm/moving_mean"
      }
    }
  }
}
node {
  name: "MobileNet/conv_ds_4/pw_batch_norm/AssignMovingAvg/Mul"
  op: "Mul"
  input: "MobileNet/conv_ds_4/pw_batch_norm/AssignMovingAvg/Sub"
  input: "MobileNet/conv_ds_4/pw_batch_norm/Const_3"
  attr {
    key: "T"
    value {
      type: DT_FLOAT
    }
  }
  attr {
    key: "_class"
    value {
      list {
        s: "loc:@MobileNet/conv_ds_4/pw_batch_norm/moving_mean"
      }
    }
  }
}
node {
  name: "MobileNet/conv_ds_4/pw_batch_norm/AssignMovingAvg"
  op: "AssignSub"
  input: "MobileNet/conv_ds_4/pw_batch_norm/moving_mean"
  input: "MobileNet/conv_ds_4/pw_batch_norm/AssignMovingAvg/Mul"
  attr {
    key: "T"
    value {
      type: DT_FLOAT
    }
  }
  attr {
    key: "_class"
    value {
      list {
        s: "loc:@MobileNet/conv_ds_4/pw_batch_norm/moving_mean"
      }
    }
  }
  attr {
    key: "use_locking"
    value {
      b: false
    }
  }
}
node {
  name: "MobileNet/conv_ds_4/pw_batch_norm/AssignMovingAvg_1/read"
  op: "Identity"
  input: "MobileNet/conv_ds_4/pw_batch_norm/moving_variance"
  attr {
    key: "T"
    value {
      type: DT_FLOAT
    }
  }
  attr {
    key: "_class"
    value {
      list {
        s: "loc:@MobileNet/conv_ds_4/pw_batch_norm/moving_variance"
      }
    }
  }
}
node {
  name: "MobileNet/conv_ds_4/pw_batch_norm/AssignMovingAvg_1/Sub"
  op: "Sub"
  input: "MobileNet/conv_ds_4/pw_batch_norm/AssignMovingAvg_1/read"
  input: "MobileNet/conv_ds_4/pw_batch_norm/FusedBatchNorm:2"
  attr {
    key: "T"
    value {
      type: DT_FLOAT
    }
  }
  attr {
    key: "_class"
    value {
      list {
        s: "loc:@MobileNet/conv_ds_4/pw_batch_norm/moving_variance"
      }
    }
  }
}
node {
  name: "MobileNet/conv_ds_4/pw_batch_norm/AssignMovingAvg_1/Mul"
  op: "Mul"
  input: "MobileNet/conv_ds_4/pw_batch_norm/AssignMovingAvg_1/Sub"
  input: "MobileNet/conv_ds_4/pw_batch_norm/Const_3"
  attr {
    key: "T"
    value {
      type: DT_FLOAT
    }
  }
  attr {
    key: "_class"
    value {
      list {
        s: "loc:@MobileNet/conv_ds_4/pw_batch_norm/moving_variance"
      }
    }
  }
}
node {
  name: "MobileNet/conv_ds_4/pw_batch_norm/AssignMovingAvg_1"
  op: "AssignSub"
  input: "MobileNet/conv_ds_4/pw_batch_norm/moving_variance"
  input: "MobileNet/conv_ds_4/pw_batch_norm/AssignMovingAvg_1/Mul"
  attr {
    key: "T"
    value {
      type: DT_FLOAT
    }
  }
  attr {
    key: "_class"
    value {
      list {
        s: "loc:@MobileNet/conv_ds_4/pw_batch_norm/moving_variance"
      }
    }
  }
  attr {
    key: "use_locking"
    value {
      b: false
    }
  }
}
node {
  name: "MobileNet/conv_ds_4/pw_batch_norm/Relu"
  op: "Relu"
  input: "MobileNet/conv_ds_4/pw_batch_norm/FusedBatchNorm"
  attr {
    key: "T"
    value {
      type: DT_FLOAT
    }
  }
}
node {
  name: "MobileNet/conv_ds_5/depthwise_conv/depthwise_weights/Initializer/random_uniform/shape"
  op: "Const"
  attr {
    key: "_class"
    value {
      list {
        s: "loc:@MobileNet/conv_ds_5/depthwise_conv/depthwise_weights"
      }
    }
  }
  attr {
    key: "dtype"
    value {
      type: DT_INT32
    }
  }
  attr {
    key: "value"
    value {
      tensor {
        dtype: DT_INT32
        tensor_shape {
          dim {
            size: 4
          }
        }
        tensor_content: "\003\000\000\000\003\000\000\000\200\000\000\000\001\000\000\000"
      }
    }
  }
}
node {
  name: "MobileNet/conv_ds_5/depthwise_conv/depthwise_weights/Initializer/random_uniform/min"
  op: "Const"
  attr {
    key: "_class"
    value {
      list {
        s: "loc:@MobileNet/conv_ds_5/depthwise_conv/depthwise_weights"
      }
    }
  }
  attr {
    key: "dtype"
    value {
      type: DT_FLOAT
    }
  }
  attr {
    key: "value"
    value {
      tensor {
        dtype: DT_FLOAT
        tensor_shape {
        }
        float_val: -0.0718885138630867
      }
    }
  }
}
node {
  name: "MobileNet/conv_ds_5/depthwise_conv/depthwise_weights/Initializer/random_uniform/max"
  op: "Const"
  attr {
    key: "_class"
    value {
      list {
        s: "loc:@MobileNet/conv_ds_5/depthwise_conv/depthwise_weights"
      }
    }
  }
  attr {
    key: "dtype"
    value {
      type: DT_FLOAT
    }
  }
  attr {
    key: "value"
    value {
      tensor {
        dtype: DT_FLOAT
        tensor_shape {
        }
        float_val: 0.0718885138630867
      }
    }
  }
}
node {
  name: "MobileNet/conv_ds_5/depthwise_conv/depthwise_weights/Initializer/random_uniform/RandomUniform"
  op: "RandomUniform"
  input: "MobileNet/conv_ds_5/depthwise_conv/depthwise_weights/Initializer/random_uniform/shape"
  attr {
    key: "T"
    value {
      type: DT_INT32
    }
  }
  attr {
    key: "_class"
    value {
      list {
        s: "loc:@MobileNet/conv_ds_5/depthwise_conv/depthwise_weights"
      }
    }
  }
  attr {
    key: "dtype"
    value {
      type: DT_FLOAT
    }
  }
  attr {
    key: "seed"
    value {
      i: 0
    }
  }
  attr {
    key: "seed2"
    value {
      i: 0
    }
  }
}
node {
  name: "MobileNet/conv_ds_5/depthwise_conv/depthwise_weights/Initializer/random_uniform/sub"
  op: "Sub"
  input: "MobileNet/conv_ds_5/depthwise_conv/depthwise_weights/Initializer/random_uniform/max"
  input: "MobileNet/conv_ds_5/depthwise_conv/depthwise_weights/Initializer/random_uniform/min"
  attr {
    key: "T"
    value {
      type: DT_FLOAT
    }
  }
  attr {
    key: "_class"
    value {
      list {
        s: "loc:@MobileNet/conv_ds_5/depthwise_conv/depthwise_weights"
      }
    }
  }
}
node {
  name: "MobileNet/conv_ds_5/depthwise_conv/depthwise_weights/Initializer/random_uniform/mul"
  op: "Mul"
  input: "MobileNet/conv_ds_5/depthwise_conv/depthwise_weights/Initializer/random_uniform/RandomUniform"
  input: "MobileNet/conv_ds_5/depthwise_conv/depthwise_weights/Initializer/random_uniform/sub"
  attr {
    key: "T"
    value {
      type: DT_FLOAT
    }
  }
  attr {
    key: "_class"
    value {
      list {
        s: "loc:@MobileNet/conv_ds_5/depthwise_conv/depthwise_weights"
      }
    }
  }
}
node {
  name: "MobileNet/conv_ds_5/depthwise_conv/depthwise_weights/Initializer/random_uniform"
  op: "Add"
  input: "MobileNet/conv_ds_5/depthwise_conv/depthwise_weights/Initializer/random_uniform/mul"
  input: "MobileNet/conv_ds_5/depthwise_conv/depthwise_weights/Initializer/random_uniform/min"
  attr {
    key: "T"
    value {
      type: DT_FLOAT
    }
  }
  attr {
    key: "_class"
    value {
      list {
        s: "loc:@MobileNet/conv_ds_5/depthwise_conv/depthwise_weights"
      }
    }
  }
}
node {
  name: "MobileNet/conv_ds_5/depthwise_conv/depthwise_weights"
  op: "VariableV2"
  attr {
    key: "_class"
    value {
      list {
        s: "loc:@MobileNet/conv_ds_5/depthwise_conv/depthwise_weights"
      }
    }
  }
  attr {
    key: "container"
    value {
      s: ""
    }
  }
  attr {
    key: "dtype"
    value {
      type: DT_FLOAT
    }
  }
  attr {
    key: "shape"
    value {
      shape {
        dim {
          size: 3
        }
        dim {
          size: 3
        }
        dim {
          size: 128
        }
        dim {
          size: 1
        }
      }
    }
  }
  attr {
    key: "shared_name"
    value {
      s: ""
    }
  }
}
node {
  name: "MobileNet/conv_ds_5/depthwise_conv/depthwise_weights/Assign"
  op: "Assign"
  input: "MobileNet/conv_ds_5/depthwise_conv/depthwise_weights"
  input: "MobileNet/conv_ds_5/depthwise_conv/depthwise_weights/Initializer/random_uniform"
  attr {
    key: "T"
    value {
      type: DT_FLOAT
    }
  }
  attr {
    key: "_class"
    value {
      list {
        s: "loc:@MobileNet/conv_ds_5/depthwise_conv/depthwise_weights"
      }
    }
  }
  attr {
    key: "use_locking"
    value {
      b: true
    }
  }
  attr {
    key: "validate_shape"
    value {
      b: true
    }
  }
}
node {
  name: "MobileNet/conv_ds_5/depthwise_conv/depthwise_weights/read"
  op: "Identity"
  input: "MobileNet/conv_ds_5/depthwise_conv/depthwise_weights"
  attr {
    key: "T"
    value {
      type: DT_FLOAT
    }
  }
  attr {
    key: "_class"
    value {
      list {
        s: "loc:@MobileNet/conv_ds_5/depthwise_conv/depthwise_weights"
      }
    }
  }
}
node {
  name: "MobileNet/conv_ds_5/depthwise_conv/depthwise/Shape"
  op: "Const"
  attr {
    key: "dtype"
    value {
      type: DT_INT32
    }
  }
  attr {
    key: "value"
    value {
      tensor {
        dtype: DT_INT32
        tensor_shape {
          dim {
            size: 4
          }
        }
        tensor_content: "\003\000\000\000\003\000\000\000\200\000\000\000\001\000\000\000"
      }
    }
  }
}
node {
  name: "MobileNet/conv_ds_5/depthwise_conv/depthwise/dilation_rate"
  op: "Const"
  attr {
    key: "dtype"
    value {
      type: DT_INT32
    }
  }
  attr {
    key: "value"
    value {
      tensor {
        dtype: DT_INT32
        tensor_shape {
          dim {
            size: 2
          }
        }
        tensor_content: "\001\000\000\000\001\000\000\000"
      }
    }
  }
}
node {
  name: "MobileNet/conv_ds_5/depthwise_conv/depthwise"
  op: "DepthwiseConv2dNative"
  input: "MobileNet/conv_ds_4/pw_batch_norm/Relu"
  input: "MobileNet/conv_ds_5/depthwise_conv/depthwise_weights/read"
  attr {
    key: "T"
    value {
      type: DT_FLOAT
    }
  }
  attr {
    key: "data_format"
    value {
      s: "NHWC"
    }
  }
  attr {
    key: "padding"
    value {
      s: "SAME"
    }
  }
  attr {
    key: "strides"
    value {
      list {
        i: 1
        i: 2
        i: 2
        i: 1
      }
    }
  }
}
node {
  name: "MobileNet/conv_ds_5/depthwise_conv/biases/Initializer/zeros"
  op: "Const"
  attr {
    key: "_class"
    value {
      list {
        s: "loc:@MobileNet/conv_ds_5/depthwise_conv/biases"
      }
    }
  }
  attr {
    key: "dtype"
    value {
      type: DT_FLOAT
    }
  }
  attr {
    key: "value"
    value {
      tensor {
        dtype: DT_FLOAT
        tensor_shape {
          dim {
            size: 128
          }
        }
        float_val: 0.0
      }
    }
  }
}
node {
…
  attr {
    key: "_class"
    value {
      list {
        s: "loc:@MobileNet/conv_ds_9/depthwise_conv/biases"
      }
    }
  }
  attr {
    key: "use_locking"
    value {
      b: true
    }
  }
  attr {
    key: "validate_shape"
    value {
      b: true
    }
  }
}
node {
  name: "save/RestoreV2_201/tensor_names"
  op: "Const"
  attr {
    key: "dtype"
    value {
      type: DT_STRING
    }
  }
  attr {
    key: "value"
    value {
      tensor {
        dtype: DT_STRING
        tensor_shape {
          dim {
            size: 1
          }
        }
        string_val: "MobileNet/conv_ds_9/depthwise_conv/biases/Momentum"
      }
    }
  }
}
node {
  name: "save/RestoreV2_201/shape_and_slices"
  op: "Const"
  attr {
    key: "dtype"
    value {
      type: DT_STRING
    }
  }
  attr {
    key: "value"
    value {
      tensor {
        dtype: DT_STRING
        tensor_shape {
          dim {
            size: 1
          }
        }
        string_val: ""
      }
    }
  }
}
node {
  name: "save/RestoreV2_201"
  op: "RestoreV2"
  input: "save/Const"
  input: "save/RestoreV2_201/tensor_names"
  input: "save/RestoreV2_201/shape_and_slices"
  attr {
    key: "dtypes"
    value {
      list {
        type: DT_FLOAT
      }
    }
  }
}
node {
  name: "save/Assign_201"
  op: "Assign"
  input: "MobileNet/conv_ds_9/depthwise_conv/biases/Momentum"
  input: "save/RestoreV2_201"
  attr {
    key: "T"
    value {
      type: DT_FLOAT
    }
  }
  attr {
    key: "_class"
    value {
      list {
        s: "loc:@MobileNet/conv_ds_9/depthwise_conv/biases"
      }
    }
  }
  attr {
    key: "use_locking"
    value {
      b: true
    }
  }
  attr {
    key: "validate_shape"
    value {
      b: true
    }
  }
}
node {
  name: "save/RestoreV2_202/tensor_names"
  op: "Const"
  attr {
    key: "dtype"
    value {
      type: DT_STRING
    }
  }
  attr {
    key: "value"
    value {
      tensor {
        dtype: DT_STRING
        tensor_shape {
          dim {
            size: 1
          }
        }
        string_val: "MobileNet/conv_ds_9/depthwise_conv/depthwise_weights"
      }
    }
  }
}
node {
  name: "save/RestoreV2_202/shape_and_slices"
  op: "Const"
  attr {
    key: "dtype"
    value {
      type: DT_STRING
    }
  }
  attr {
    key: "value"
    value {
      tensor {
        dtype: DT_STRING
        tensor_shape {
          dim {
            size: 1
          }
        }
        string_val: ""
      }
    }
  }
}
node {
  name: "save/RestoreV2_202"
  op: "RestoreV2"
  input: "save/Const"
  input: "save/RestoreV2_202/tensor_names"
  input: "save/RestoreV2_202/shape_and_slices"
  attr {
    key: "dtypes"
    value {
      list {
        type: DT_FLOAT
      }
    }
  }
}
node {
  name: "save/Assign_202"
  op: "Assign"
  input: "MobileNet/conv_ds_9/depthwise_conv/depthwise_weights"
  input: "save/RestoreV2_202"
  attr {
    key: "T"
    value {
      type: DT_FLOAT
    }
  }
  attr {
    key: "_class"
    value {
      list {
        s: "loc:@MobileNet/conv_ds_9/depthwise_conv/depthwise_weights"
      }
    }
  }
  attr {
    key: "use_locking"
    value {
      b: true
    }
  }
  attr {
    key: "validate_shape"
    value {
      b: true
    }
  }
}
node {
  name: "save/RestoreV2_203/tensor_names"
  op: "Const"
  attr {
    key: "dtype"
    value {
      type: DT_STRING
    }
  }
  attr {
    key: "value"
    value {
      tensor {
        dtype: DT_STRING
        tensor_shape {
          dim {
            size: 1
          }
        }
        string_val: "MobileNet/conv_ds_9/depthwise_conv/depthwise_weights/Momentum"
      }
    }
  }
}
node {
  name: "save/RestoreV2_203/shape_and_slices"
  op: "Const"
  attr {
    key: "dtype"
    value {
      type: DT_STRING
    }
  }
  attr {
    key: "value"
    value {
      tensor {
        dtype: DT_STRING
        tensor_shape {
          dim {
            size: 1
          }
        }
        string_val: ""
      }
    }
  }
}
node {
  name: "save/RestoreV2_203"
  op: "RestoreV2"
  input: "save/Const"
  input: "save/RestoreV2_203/tensor_names"
  input: "save/RestoreV2_203/shape_and_slices"
  attr {
    key: "dtypes"
    value {
      list {
        type: DT_FLOAT
      }
    }
  }
}
node {
  name: "save/Assign_203"
  op: "Assign"
  input: "MobileNet/conv_ds_9/depthwise_conv/depthwise_weights/Momentum"
  input: "save/RestoreV2_203"
  attr {
    key: "T"
    value {
      type: DT_FLOAT
    }
  }
  attr {
    key: "_class"
    value {
      list {
        s: "loc:@MobileNet/conv_ds_9/depthwise_conv/depthwise_weights"
      }
    }
  }
  attr {
    key: "use_locking"
    value {
      b: true
    }
  }
  attr {
    key: "validate_shape"
    value {
      b: true
    }
  }
}
node {
  name: "save/RestoreV2_204/tensor_names"
  op: "Const"
  attr {
    key: "dtype"
    value {
      type: DT_STRING
    }
  }
  attr {
    key: "value"
    value {
      tensor {
        dtype: DT_STRING
        tensor_shape {
          dim {
            size: 1
          }
        }
        string_val: "MobileNet/conv_ds_9/dw_batch_norm/beta"
      }
    }
  }
}
node {
  name: "save/RestoreV2_204/shape_and_slices"
  op: "Const"
  attr {
    key: "dtype"
    value {
      type: DT_STRING
    }
  }
  attr {
    key: "value"
    value {
      tensor {
        dtype: DT_STRING
        tensor_shape {
          dim {
            size: 1
          }
        }
        string_val: ""
      }
    }
  }
}
node {
  name: "save/RestoreV2_204"
  op: "RestoreV2"
  input: "save/Const"
  input: "save/RestoreV2_204/tensor_names"
  input: "save/RestoreV2_204/shape_and_slices"
  attr {
    key: "dtypes"
    value {
      list {
        type: DT_FLOAT
      }
    }
  }
}
node {
  name: "save/Assign_204"
  op: "Assign"
  input: "MobileNet/conv_ds_9/dw_batch_norm/beta"
  input: "save/RestoreV2_204"
  attr {
    key: "T"
    value {
      type: DT_FLOAT
    }
  }
  attr {
    key: "_class"
    value {
      list {
        s: "loc:@MobileNet/conv_ds_9/dw_batch_norm/beta"
      }
    }
  }
  attr {
    key: "use_locking"
    value {
      b: true
    }
  }
  attr {
    key: "validate_shape"
    value {
      b: true
    }
  }
}
node {
  name: "save/RestoreV2_205/tensor_names"
  op: "Const"
  attr {
    key: "dtype"
    value {
      type: DT_STRING
    }
  }
  attr {
    key: "value"
    value {
      tensor {
        dtype: DT_STRING
        tensor_shape {
          dim {
            size: 1
          }
        }
        string_val: "MobileNet/conv_ds_9/dw_batch_norm/beta/Momentum"
      }
    }
  }
}
node {
  name: "save/RestoreV2_205/shape_and_slices"
  op: "Const"
  attr {
    key: "dtype"
    value {
      type: DT_STRING
    }
  }
  attr {
    key: "value"
    value {
      tensor {
        dtype: DT_STRING
        tensor_shape {
          dim {
            size: 1
          }
        }
        string_val: ""
      }
    }
  }
}
node {
  name: "save/RestoreV2_205"
  op: "RestoreV2"
  input: "save/Const"
  input: "save/RestoreV2_205/tensor_names"
  input: "save/RestoreV2_205/shape_and_slices"
  attr {
    key: "dtypes"
    value {
      list {
        type: DT_FLOAT
      }
    }
  }
}
node {
  name: "save/Assign_205"
  op: "Assign"
  input: "MobileNet/conv_ds_9/dw_batch_norm/beta/Momentum"
  input: "save/RestoreV2_205"
  attr {
    key: "T"
    value {
      type: DT_FLOAT
    }
  }
  attr {
    key: "_class"
    value {
      list {
        s: "loc:@MobileNet/conv_ds_9/dw_batch_norm/beta"
      }
    }
  }
  attr {
    key: "use_locking"
    value {
      b: true
    }
  }
  attr {
    key: "validate_shape"
    value {
      b: true
    }
  }
}
node {
  name: "save/RestoreV2_206/tensor_names"
  op: "Const"
  attr {
    key: "dtype"
    value {
      type: DT_STRING
    }
  }
  attr {
    key: "value"
    value {
      tensor {
        dtype: DT_STRING
        tensor_shape {
          dim {
            size: 1
          }
        }
        string_val: "MobileNet/conv_ds_9/dw_batch_norm/moving_mean"
      }
    }
  }
}
node {
  name: "save/RestoreV2_206/shape_and_slices"
  op: "Const"
  attr {
    key: "dtype"
    value {
      type: DT_STRING
    }
  }
  attr {
    key: "value"
    value {
      tensor {
        dtype: DT_STRING
        tensor_shape {
          dim {
            size: 1
          }
        }
        string_val: ""
      }
    }
  }
}
node {
  name: "save/RestoreV2_206"
  op: "RestoreV2"
  input: "save/Const"
  input: "save/RestoreV2_206/tensor_names"
  input: "save/RestoreV2_206/shape_and_slices"
  attr {
    key: "dtypes"
    value {
      list {
        type: DT_FLOAT
      }
    }
  }
}
node {
  name: "save/Assign_206"
  op: "Assign"
  input: "MobileNet/conv_ds_9/dw_batch_norm/moving_mean"
  input: "save/RestoreV2_206"
  attr {
    key: "T"
    value {
      type: DT_FLOAT
    }
  }
  attr {
    key: "_class"
    value {
      list {
        s: "loc:@MobileNet/conv_ds_9/dw_batch_norm/moving_mean"
      }
    }
  }
  attr {
    key: "use_locking"
    value {
      b: true
    }
  }
  attr {
    key: "validate_shape"
    value {
      b: true
    }
  }
}
node {
  name: "save/RestoreV2_207/tensor_names"
  op: "Const"
  attr {
    key: "dtype"
    value {
      type: DT_STRING
    }
  }
  attr {
    key: "value"
    value {
      tensor {
        dtype: DT_STRING
        tensor_shape {
          dim {
            size: 1
          }
        }
        string_val: "MobileNet/conv_ds_9/dw_batch_norm/moving_variance"
      }
    }
  }
}
node {
  name: "save/RestoreV2_207/shape_and_slices"
  op: "Const"
  attr {
    key: "dtype"
    value {
      type: DT_STRING
    }
  }
  attr {
    key: "value"
    value {
      tensor {
        dtype: DT_STRING
        tensor_shape {
          dim {
            size: 1
          }
        }
        string_val: ""
      }
    }
  }
}
node {
  name: "save/RestoreV2_207"
  op: "RestoreV2"
  input: "save/Const"
  input: "save/RestoreV2_207/tensor_names"
  input: "save/RestoreV2_207/shape_and_slices"
  attr {
    key: "dtypes"
    value {
      list {
        type: DT_FLOAT
      }
    }
  }
}
node {
  name: "save/Assign_207"
  op: "Assign"
  input: "MobileNet/conv_ds_9/dw_batch_norm/moving_variance"
  input: "save/RestoreV2_207"
  attr {
    key: "T"
    value {
      type: DT_FLOAT
    }
  }
  attr {
    key: "_class"
    value {
      list {
        s: "loc:@MobileNet/conv_ds_9/dw_batch_norm/moving_variance"
      }
    }
  }
  attr {
    key: "use_locking"
    value {
      b: true
    }
  }
  attr {
    key: "validate_shape"
    value {
      b: true
    }
  }
}
node {
  name: "save/RestoreV2_208/tensor_names"
  op: "Const"
  attr {
    key: "dtype"
    value {
      type: DT_STRING
    }
  }
  attr {
    key: "value"
    value {
      tensor {
        dtype: DT_STRING
        tensor_shape {
          dim {
            size: 1
          }
        }
        string_val: "MobileNet/conv_ds_9/pointwise_conv/biases"
      }
    }
  }
}
node {
  name: "save/RestoreV2_208/shape_and_slices"
  op: "Const"
  attr {
    key: "dtype"
    value {
      type: DT_STRING
    }
  }
  attr {
    key: "value"
    value {
      tensor {
        dtype: DT_STRING
        tensor_shape {
          dim {
            size: 1
          }
        }
        string_val: ""
      }
    }
  }
}
node {
  name: "save/RestoreV2_208"
  op: "RestoreV2"
  input: "save/Const"
  input: "save/RestoreV2_208/tensor_names"
  input: "save/RestoreV2_208/shape_and_slices"
  attr {
    key: "dtypes"
    value {
      list {
        type: DT_FLOAT
      }
    }
  }
}
node {
  name: "save/Assign_208"
  op: "Assign"
  input: "MobileNet/conv_ds_9/pointwise_conv/biases"
  input: "save/RestoreV2_208"
  attr {
    key: "T"
    value {
      type: DT_FLOAT
    }
  }
  attr {
    key: "_class"
    value {
      list {
        s: "loc:@MobileNet/conv_ds_9/pointwise_conv/biases"
      }
    }
  }
  attr {
    key: "use_locking"
    value {
      b: true
    }
  }
  attr {
    key: "validate_shape"
    value {
      b: true
    }
  }
}
node {
  name: "save/RestoreV2_209/tensor_names"
  op: "Const"
  attr {
    key: "dtype"
    value {
      type: DT_STRING
    }
  }
  attr {
    key: "value"
    value {
      tensor {
        dtype: DT_STRING
        tensor_shape {
          dim {
            size: 1
          }
        }
        string_val: "MobileNet/conv_ds_9/pointwise_conv/biases/Momentum"
      }
    }
  }
}
node {
  name: "save/RestoreV2_209/shape_and_slices"
  op: "Const"
  attr {
    key: "dtype"
    value {
      type: DT_STRING
    }
  }
  attr {
    key: "value"
    value {
      tensor {
        dtype: DT_STRING
        tensor_shape {
          dim {
            size: 1
          }
        }
        string_val: ""
      }
    }
  }
}
node {
  name: "save/RestoreV2_209"
  op: "RestoreV2"
  input: "save/Const"
  input: "save/RestoreV2_209/tensor_names"
  input: "save/RestoreV2_209/shape_and_slices"
  attr {
    key: "dtypes"
    value {
      list {
        type: DT_FLOAT
      }
    }
  }
}
node {
  name: "save/Assign_209"
  op: "Assign"
  input: "MobileNet/conv_ds_9/pointwise_conv/biases/Momentum"
  input: "save/RestoreV2_209"
  attr {
    key: "T"
    value {
      type: DT_FLOAT
    }
  }
  attr {
    key: "_class"
    value {
      list {
        s: "loc:@MobileNet/conv_ds_9/pointwise_conv/biases"
      }
    }
  }
  attr {
    key: "use_locking"
    value {
      b: true
    }
  }
  attr {
    key: "validate_shape"
    value {
      b: true
    }
  }
}
node {
  name: "save/RestoreV2_210/tensor_names"
  op: "Const"
  attr {
    key: "dtype"
    value {
      type: DT_STRING
    }
  }
  attr {
    key: "value"
    value {
      tensor {
        dtype: DT_STRING
        tensor_shape {
          dim {
            size: 1
          }
        }
        string_val: "MobileNet/conv_ds_9/pointwise_conv/weights"
      }
    }
  }
}
node {
  name: "save/RestoreV2_210/shape_and_slices"
  op: "Const"
  attr {
    key: "dtype"
    value {
      type: DT_STRING
    }
  }
  attr {
    key: "value"
    value {
      tensor {
        dtype: DT_STRING
        tensor_shape {
          dim {
            size: 1
          }
        }
        string_val: ""
      }
    }
  }
}
node {
  name: "save/RestoreV2_210"
  op: "RestoreV2"
  input: "save/Const"
  input: "save/RestoreV2_210/tensor_names"
  input: "save/RestoreV2_210/shape_and_slices"
  attr {
    key: "dtypes"
    value {
      list {
        type: DT_FLOAT
      }
    }
  }
}
node {
  name: "save/Assign_210"
  op: "Assign"
  input: "MobileNet/conv_ds_9/pointwise_conv/weights"
  input: "save/RestoreV2_210"
  attr {
    key: "T"
    value {
      type: DT_FLOAT
    }
  }
  attr {
    key: "_class"
    value {
      list {
        s: "loc:@MobileNet/conv_ds_9/pointwise_conv/weights"
      }
    }
  }
  attr {
    key: "use_locking"
    value {
      b: true
    }
  }
  attr {
    key: "validate_shape"
    value {
      b: true
    }
  }
}
node {
  name: "save/RestoreV2_211/tensor_names"
  op: "Const"
  attr {
    key: "dtype"
    value {
      type: DT_STRING
    }
  }
  attr {
    key: "value"
    value {
      tensor {
        dtype: DT_STRING
        tensor_shape {
          dim {
            size: 1
          }
        }
        string_val: "MobileNet/conv_ds_9/pointwise_conv/weights/Momentum"
      }
    }
  }
}
node {
  name: "save/RestoreV2_211/shape_and_slices"
  op: "Const"
  attr {
    key: "dtype"
    value {
      type: DT_STRING
    }
  }
  attr {
    key: "value"
    value {
      tensor {
        dtype: DT_STRING
        tensor_shape {
          dim {
            size: 1
          }
        }
        string_val: ""
      }
    }
  }
}
node {
  name: "save/RestoreV2_211"
  op: "RestoreV2"
  input: "save/Const"
  input: "save/RestoreV2_211/tensor_names"
  input: "save/RestoreV2_211/shape_and_slices"
  attr {
    key: "dtypes"
    value {
      list {
        type: DT_FLOAT
      }
    }
  }
}
node {
  name: "save/Assign_211"
  op: "Assign"
  input: "MobileNet/conv_ds_9/pointwise_conv/weights/Momentum"
  input: "save/RestoreV2_211"
  attr {
    key: "T"
    value {
      type: DT_FLOAT
    }
  }
  attr {
    key: "_class"
    value {
      list {
        s: "loc:@MobileNet/conv_ds_9/pointwise_conv/weights"
      }
    }
  }
  attr {
    key: "use_locking"
    value {
      b: true
    }
  }
  attr {
    key: "validate_shape"
    value {
      b: true
    }
  }
}
node {
  name: "save/RestoreV2_212/tensor_names"
  op: "Const"
  attr {
    key: "dtype"
    value {
      type: DT_STRING
    }
  }
  attr {
    key: "value"
    value {
      tensor {
        dtype: DT_STRING
        tensor_shape {
          dim {
            size: 1
          }
        }
        string_val: "MobileNet/conv_ds_9/pw_batch_norm/beta"
      }
    }
  }
}
node {
  name: "save/RestoreV2_212/shape_and_slices"
  op: "Const"
  attr {
    key: "dtype"
    value {
      type: DT_STRING
    }
  }
  attr {
    key: "value"
    value {
      tensor {
        dtype: DT_STRING
        tensor_shape {
          dim {
            size: 1
          }
        }
        string_val: ""
      }
    }
  }
}
node {
  name: "save/RestoreV2_212"
  op: "RestoreV2"
  input: "save/Const"
  input: "save/RestoreV2_212/tensor_names"
  input: "save/RestoreV2_212/shape_and_slices"
  attr {
    key: "dtypes"
    value {
      list {
        type: DT_FLOAT
      }
    }
  }
}
node {
  name: "save/Assign_212"
  op: "Assign"
  input: "MobileNet/conv_ds_9/pw_batch_norm/beta"
  input: "save/RestoreV2_212"
  attr {
    key: "T"
    value {
      type: DT_FLOAT
    }
  }
  attr {
    key: "_class"
    value {
      list {
        s: "loc:@MobileNet/conv_ds_9/pw_batch_norm/beta"
      }
    }
  }
  attr {
    key: "use_locking"
    value {
      b: true
    }
  }
  attr {
    key: "validate_shape"
    value {
      b: true
    }
  }
}
node {
  name: "save/RestoreV2_213/tensor_names"
  op: "Const"
  attr {
    key: "dtype"
    value {
      type: DT_STRING
    }
  }
  attr {
    key: "value"
    value {
      tensor {
        dtype: DT_STRING
        tensor_shape {
          dim {
            size: 1
          }
        }
        string_val: "MobileNet/conv_ds_9/pw_batch_norm/beta/Momentum"
      }
    }
  }
}
node {
  name: "save/RestoreV2_213/shape_and_slices"
  op: "Const"
  attr {
    key: "dtype"
    value {
      type: DT_STRING
    }
  }
  attr {
    key: "value"
    value {
      tensor {
        dtype: DT_STRING
        tensor_shape {
          dim {
            size: 1
          }
        }
        string_val: ""
      }
    }
  }
}
node {
  name: "save/RestoreV2_213"
  op: "RestoreV2"
  input: "save/Const"
  input: "save/RestoreV2_213/tensor_names"
  input: "save/RestoreV2_213/shape_and_slices"
  attr {
    key: "dtypes"
    value {
      list {
        type: DT_FLOAT
      }
    }
  }
}
node {
  name: "save/Assign_213"
  op: "Assign"
  input: "MobileNet/conv_ds_9/pw_batch_norm/beta/Momentum"
  input: "save/RestoreV2_213"
  attr {
    key: "T"
    value {
      type: DT_FLOAT
    }
  }
  attr {
    key: "_class"
    value {
      list {
        s: "loc:@MobileNet/conv_ds_9/pw_batch_norm/beta"
      }
    }
  }
  attr {
    key: "use_locking"
    value {
      b: true
    }
  }
  attr {
    key: "validate_shape"
    value {
      b: true
    }
  }
}
node {
  name: "save/RestoreV2_214/tensor_names"
  op: "Const"
  attr {
    key: "dtype"
    value {
      type: DT_STRING
    }
  }
  attr {
    key: "value"
    value {
      tensor {
        dtype: DT_STRING
        tensor_shape {
          dim {
            size: 1
          }
        }
        string_val: "MobileNet/conv_ds_9/pw_batch_norm/moving_mean"
      }
    }
  }
}
node {
  name: "save/RestoreV2_214/shape_and_slices"
  op: "Const"
  attr {
    key: "dtype"
    value {
      type: DT_STRING
    }
  }
  attr {
    key: "value"
    value {
      tensor {
        dtype: DT_STRING
        tensor_shape {
          dim {
            size: 1
          }
        }
        string_val: ""
      }
    }
  }
}
node {
  name: "save/RestoreV2_214"
  op: "RestoreV2"
  input: "save/Const"
  input: "save/RestoreV2_214/tensor_names"
  input: "save/RestoreV2_214/shape_and_slices"
  attr {
    key: "dtypes"
    value {
      list {
        type: DT_FLOAT
      }
    }
  }
}
node {
  name: "save/Assign_214"
  op: "Assign"
  input: "MobileNet/conv_ds_9/pw_batch_norm/moving_mean"
  input: "save/RestoreV2_214"
  attr {
    key: "T"
    value {
      type: DT_FLOAT
    }
  }
  attr {
    key: "_class"
    value {
      list {
        s: "loc:@MobileNet/conv_ds_9/pw_batch_norm/moving_mean"
      }
    }
  }
  attr {
    key: "use_locking"
    value {
      b: true
    }
  }
  attr {
    key: "validate_shape"
    value {
      b: true
    }
  }
}
node {
  name: "save/RestoreV2_215/tensor_names"
  op: "Const"
  attr {
    key: "dtype"
    value {
      type: DT_STRING
    }
  }
  attr {
    key: "value"
    value {
      tensor {
        dtype: DT_STRING
        tensor_shape {
          dim {
            size: 1
          }
        }
        string_val: "MobileNet/conv_ds_9/pw_batch_norm/moving_variance"
      }
    }
  }
}
node {
  name: "save/RestoreV2_215/shape_and_slices"
  op: "Const"
  attr {
    key: "dtype"
    value {
      type: DT_STRING
    }
  }
  attr {
    key: "value"
    value {
      tensor {
        dtype: DT_STRING
        tensor_shape {
          dim {
            size: 1
          }
        }
        string_val: ""
      }
    }
  }
}
node {
  name: "save/RestoreV2_215"
  op: "RestoreV2"
  input: "save/Const"
  input: "save/RestoreV2_215/tensor_names"
  input: "save/RestoreV2_215/shape_and_slices"
  attr {
    key: "dtypes"
    value {
      list {
        type: DT_FLOAT
      }
    }
  }
}
node {
  name: "save/Assign_215"
  op: "Assign"
  input: "MobileNet/conv_ds_9/pw_batch_norm/moving_variance"
  input: "save/RestoreV2_215"
  attr {
    key: "T"
    value {
      type: DT_FLOAT
    }
  }
  attr {
    key: "_class"
    value {
      list {
        s: "loc:@MobileNet/conv_ds_9/pw_batch_norm/moving_variance"
      }
    }
  }
  attr {
    key: "use_locking"
    value {
      b: true
    }
  }
  attr {
    key: "validate_shape"
    value {
      b: true
    }
  }
}
node {
  name: "save/RestoreV2_216/tensor_names"
  op: "Const"
  attr {
    key: "dtype"
    value {
      type: DT_STRING
    }
  }
  attr {
    key: "value"
    value {
      tensor {
        dtype: DT_STRING
        tensor_shape {
          dim {
            size: 1
          }
        }
        string_val: "MobileNet/fc_16/biases"
      }
    }
  }
}
node {
  name: "save/RestoreV2_216/shape_and_slices"
  op: "Const"
  attr {
    key: "dtype"
    value {
      type: DT_STRING
    }
  }
  attr {
    key: "value"
    value {
      tensor {
        dtype: DT_STRING
        tensor_shape {
          dim {
            size: 1
          }
        }
        string_val: ""
      }
    }
  }
}
node {
  name: "save/RestoreV2_216"
  op: "RestoreV2"
  input: "save/Const"
  input: "save/RestoreV2_216/tensor_names"
  input: "save/RestoreV2_216/shape_and_slices"
  attr {
    key: "dtypes"
    value {
      list {
        type: DT_FLOAT
      }
    }
  }
}
node {
  name: "save/Assign_216"
  op: "Assign"
  input: "MobileNet/fc_16/biases"
  input: "save/RestoreV2_216"
  attr {
    key: "T"
    value {
      type: DT_FLOAT
    }
  }
  attr {
    key: "_class"
    value {
      list {
        s: "loc:@MobileNet/fc_16/biases"
      }
    }
  }
  attr {
    key: "use_locking"
    value {
      b: true
    }
  }
  attr {
    key: "validate_shape"
    value {
      b: true
    }
  }
}
node {
  name: "save/RestoreV2_217/tensor_names"
  op: "Const"
  attr {
    key: "dtype"
    value {
      type: DT_STRING
    }
  }
  attr {
    key: "value"
    value {
      tensor {
        dtype: DT_STRING
        tensor_shape {
          dim {
            size: 1
          }
        }
        string_val: "MobileNet/fc_16/biases/Momentum"
      }
    }
  }
}
node {
  name: "save/RestoreV2_217/shape_and_slices"
  op: "Const"
  attr {
    key: "dtype"
    value {
      type: DT_STRING
    }
  }
  attr {
    key: "value"
    value {
      tensor {
        dtype: DT_STRING
        tensor_shape {
          dim {
            size: 1
          }
        }
        string_val: ""
      }
    }
  }
}
node {
  name: "save/RestoreV2_217"
  op: "RestoreV2"
  input: "save/Const"
  input: "save/RestoreV2_217/tensor_names"
  input: "save/RestoreV2_217/shape_and_slices"
  attr {
    key: "dtypes"
    value {
      list {
        type: DT_FLOAT
      }
    }
  }
}
node {
  name: "save/Assign_217"
  op: "Assign"
  input: "MobileNet/fc_16/biases/Momentum"
  input: "save/RestoreV2_217"
  attr {
    key: "T"
    value {
      type: DT_FLOAT
    }
  }
  attr {
    key: "_class"
    value {
      list {
        s: "loc:@MobileNet/fc_16/biases"
      }
    }
  }
  attr {
    key: "use_locking"
    value {
      b: true
    }
  }
  attr {
    key: "validate_shape"
    value {
      b: true
    }
  }
}
node {
  name: "save/RestoreV2_218/tensor_names"
  op: "Const"
  attr {
    key: "dtype"
    value {
      type: DT_STRING
    }
  }
  attr {
    key: "value"
    value {
      tensor {
        dtype: DT_STRING
        tensor_shape {
          dim {
            size: 1
          }
        }
        string_val: "MobileNet/fc_16/weights"
      }
    }
  }
}
node {
  name: "save/RestoreV2_218/shape_and_slices"
  op: "Const"
  attr {
    key: "dtype"
    value {
      type: DT_STRING
    }
  }
  attr {
    key: "value"
    value {
      tensor {
        dtype: DT_STRING
        tensor_shape {
          dim {
            size: 1
          }
        }
        string_val: ""
      }
    }
  }
}
node {
  name: "save/RestoreV2_218"
  op: "RestoreV2"
  input: "save/Const"
  input: "save/RestoreV2_218/tensor_names"
  input: "save/RestoreV2_218/shape_and_slices"
  attr {
    key: "dtypes"
    value {
      list {
        type: DT_FLOAT
      }
    }
  }
}
node {
  name: "save/Assign_218"
  op: "Assign"
  input: "MobileNet/fc_16/weights"
  input: "save/RestoreV2_218"
  attr {
    key: "T"
    value {
      type: DT_FLOAT
    }
  }
  attr {
    key: "_class"
    value {
      list {
        s: "loc:@MobileNet/fc_16/weights"
      }
    }
  }
  attr {
    key: "use_locking"
    value {
      b: true
    }
  }
  attr {
    key: "validate_shape"
    value {
      b: true
    }
  }
}
node {
  name: "save/RestoreV2_219/tensor_names"
  op: "Const"
  attr {
    key: "dtype"
    value {
      type: DT_STRING
    }
  }
  attr {
    key: "value"
    value {
      tensor {
        dtype: DT_STRING
        tensor_shape {
          dim {
            size: 1
          }
        }
        string_val: "MobileNet/fc_16/weights/Momentum"
      }
    }
  }
}
node {
  name: "save/RestoreV2_219/shape_and_slices"
  op: "Const"
  attr {
    key: "dtype"
    value {
      type: DT_STRING
    }
  }
  attr {
    key: "value"
    value {
      tensor {
        dtype: DT_STRING
        tensor_shape {
          dim {
            size: 1
          }
        }
        string_val: ""
      }
    }
  }
}
node {
  name: "save/RestoreV2_219"
  op: "RestoreV2"
  input: "save/Const"
  input: "save/RestoreV2_219/tensor_names"
  input: "save/RestoreV2_219/shape_and_slices"
  attr {
    key: "dtypes"
    value {
      list {
        type: DT_FLOAT
      }
    }
  }
}
node {
  name: "save/Assign_219"
  op: "Assign"
  input: "MobileNet/fc_16/weights/Momentum"
  input: "save/RestoreV2_219"
  attr {
    key: "T"
    value {
      type: DT_FLOAT
    }
  }
  attr {
    key: "_class"
    value {
      list {
        s: "loc:@MobileNet/fc_16/weights"
      }
    }
  }
  attr {
    key: "use_locking"
    value {
      b: true
    }
  }
  attr {
    key: "validate_shape"
    value {
      b: true
    }
  }
}
node {
  name: "save/RestoreV2_220/tensor_names"
  op: "Const"
  attr {
    key: "dtype"
    value {
      type: DT_STRING
    }
  }
  attr {
    key: "value"
    value {
      tensor {
        dtype: DT_STRING
        tensor_shape {
          dim {
            size: 1
          }
        }
        string_val: "global_step"
      }
    }
  }
}
node {
  name: "save/RestoreV2_220/shape_and_slices"
  op: "Const"
  attr {
    key: "dtype"
    value {
      type: DT_STRING
    }
  }
  attr {
    key: "value"
    value {
      tensor {
        dtype: DT_STRING
        tensor_shape {
          dim {
            size: 1
          }
        }
        string_val: ""
      }
    }
  }
}
node {
  name: "save/RestoreV2_220"
  op: "RestoreV2"
  input: "save/Const"
  input: "save/RestoreV2_220/tensor_names"
  input: "save/RestoreV2_220/shape_and_slices"
  attr {
    key: "dtypes"
    value {
      list {
        type: DT_INT64
      }
    }
  }
}
node {
  name: "save/Assign_220"
  op: "Assign"
  input: "global_step"
  input: "save/RestoreV2_220"
  attr {
    key: "T"
    value {
      type: DT_INT64
    }
  }
  attr {
    key: "_class"
    value {
      list {
        s: "loc:@global_step"
      }
    }
  }
  attr {
    key: "use_locking"
    value {
      b: true
    }
  }
  attr {
    key: "validate_shape"
    value {
      b: true
    }
  }
}
node {
  name: "save/restore_all"
  op: "NoOp"
  input: "^save/Assign"
  input: "^save/Assign_1"
  input: "^save/Assign_2"
  input: "^save/Assign_3"
  input: "^save/Assign_4"
  input: "^save/Assign_5"
  input: "^save/Assign_6"
  input: "^save/Assign_7"
  input: "^save/Assign_8"
  input: "^save/Assign_9"
  input: "^save/Assign_10"
  input: "^save/Assign_11"
  input: "^save/Assign_12"
  input: "^save/Assign_13"
  input: "^save/Assign_14"
  input: "^save/Assign_15"
  input: "^save/Assign_16"
  input: "^save/Assign_17"
  input: "^save/Assign_18"
  input: "^save/Assign_19"
  input: "^save/Assign_20"
  input: "^save/Assign_21"
  input: "^save/Assign_22"
  input: "^save/Assign_23"
  input: "^save/Assign_24"
  input: "^save/Assign_25"
  input: "^save/Assign_26"
  input: "^save/Assign_27"
  input: "^save/Assign_28"
  input: "^save/Assign_29"
  input: "^save/Assign_30"
  input: "^save/Assign_31"
  input: "^save/Assign_32"
  input: "^save/Assign_33"
  input: "^save/Assign_34"
  input: "^save/Assign_35"
  input: "^save/Assign_36"
  input: "^save/Assign_37"
  input: "^save/Assign_38"
  input: "^save/Assign_39"
  input: "^save/Assign_40"
  input: "^save/Assign_41"
  input: "^save/Assign_42"
  input: "^save/Assign_43"
  input: "^save/Assign_44"
  input: "^save/Assign_45"
  input: "^save/Assign_46"
  input: "^save/Assign_47"
  input: "^save/Assign_48"
  input: "^save/Assign_49"
  input: "^save/Assign_50"
  input: "^save/Assign_51"
  input: "^save/Assign_52"
  input: "^save/Assign_53"
  input: "^save/Assign_54"
  input: "^save/Assign_55"
  input: "^save/Assign_56"
  input: "^save/Assign_57"
  input: "^save/Assign_58"
  input: "^save/Assign_59"
  input: "^save/Assign_60"
  input: "^save/Assign_61"
  input: "^save/Assign_62"
  input: "^save/Assign_63"
  input: "^save/Assign_64"
  input: "^save/Assign_65"
  input: "^save/Assign_66"
  input: "^save/Assign_67"
  input: "^save/Assign_68"
  input: "^save/Assign_69"
  input: "^save/Assign_70"
  input: "^save/Assign_71"
  input: "^save/Assign_72"
  input: "^save/Assign_73"
  input: "^save/Assign_74"
  input: "^save/Assign_75"
  input: "^save/Assign_76"
  input: "^save/Assign_77"
  input: "^save/Assign_78"
  input: "^save/Assign_79"
  input: "^save/Assign_80"
  input: "^save/Assign_81"
  input: "^save/Assign_82"
  input: "^save/Assign_83"
  input: "^save/Assign_84"
  input: "^save/Assign_85"
  input: "^save/Assign_86"
  input: "^save/Assign_87"
  input: "^save/Assign_88"
  input: "^save/Assign_89"
  input: "^save/Assign_90"
  input: "^save/Assign_91"
  input: "^save/Assign_92"
  input: "^save/Assign_93"
  input: "^save/Assign_94"
  input: "^save/Assign_95"
  input: "^save/Assign_96"
  input: "^save/Assign_97"
  input: "^save/Assign_98"
  input: "^save/Assign_99"
  input: "^save/Assign_100"
  input: "^save/Assign_101"
  input: "^save/Assign_102"
  input: "^save/Assign_103"
  input: "^save/Assign_104"
  input: "^save/Assign_105"
  input: "^save/Assign_106"
  input: "^save/Assign_107"
  input: "^save/Assign_108"
  input: "^save/Assign_109"
  input: "^save/Assign_110"
  input: "^save/Assign_111"
  input: "^save/Assign_112"
  input: "^save/Assign_113"
  input: "^save/Assign_114"
  input: "^save/Assign_115"
  input: "^save/Assign_116"
  input: "^save/Assign_117"
  input: "^save/Assign_118"
  input: "^save/Assign_119"
  input: "^save/Assign_120"
  input: "^save/Assign_121"
  input: "^save/Assign_122"
  input: "^save/Assign_123"
  input: "^save/Assign_124"
  input: "^save/Assign_125"
  input: "^save/Assign_126"
  input: "^save/Assign_127"
  input: "^save/Assign_128"
  input: "^save/Assign_129"
  input: "^save/Assign_130"
  input: "^save/Assign_131"
  input: "^save/Assign_132"
  input: "^save/Assign_133"
  input: "^save/Assign_134"
  input: "^save/Assign_135"
  input: "^save/Assign_136"
  input: "^save/Assign_137"
  input: "^save/Assign_138"
  input: "^save/Assign_139"
  input: "^save/Assign_140"
  input: "^save/Assign_141"
  input: "^save/Assign_142"
  input: "^save/Assign_143"
  input: "^save/Assign_144"
  input: "^save/Assign_145"
  input: "^save/Assign_146"
  input: "^save/Assign_147"
  input: "^save/Assign_148"
  input: "^save/Assign_149"
  input: "^save/Assign_150"
  input: "^save/Assign_151"
  input: "^save/Assign_152"
  input: "^save/Assign_153"
  input: "^save/Assign_154"
  input: "^save/Assign_155"
  input: "^save/Assign_156"
  input: "^save/Assign_157"
  input: "^save/Assign_158"
  input: "^save/Assign_159"
  input: "^save/Assign_160"
  input: "^save/Assign_161"
  input: "^save/Assign_162"
  input: "^save/Assign_163"
  input: "^save/Assign_164"
  input: "^save/Assign_165"
  input: "^save/Assign_166"
  input: "^save/Assign_167"
  input: "^save/Assign_168"
  input: "^save/Assign_169"
  input: "^save/Assign_170"
  input: "^save/Assign_171"
  input: "^save/Assign_172"
  input: "^save/Assign_173"
  input: "^save/Assign_174"
  input: "^save/Assign_175"
  input: "^save/Assign_176"
  input: "^save/Assign_177"
  input: "^save/Assign_178"
  input: "^save/Assign_179"
  input: "^save/Assign_180"
  input: "^save/Assign_181"
  input: "^save/Assign_182"
  input: "^save/Assign_183"
  input: "^save/Assign_184"
  input: "^save/Assign_185"
  input: "^save/Assign_186"
  input: "^save/Assign_187"
  input: "^save/Assign_188"
  input: "^save/Assign_189"
  input: "^save/Assign_190"
  input: "^save/Assign_191"
  input: "^save/Assign_192"
  input: "^save/Assign_193"
  input: "^save/Assign_194"
  input: "^save/Assign_195"
  input: "^save/Assign_196"
  input: "^save/Assign_197"
  input: "^save/Assign_198"
  input: "^save/Assign_199"
  input: "^save/Assign_200"
  input: "^save/Assign_201"
  input: "^save/Assign_202"
  input: "^save/Assign_203"
  input: "^save/Assign_204"
  input: "^save/Assign_205"
  input: "^save/Assign_206"
  input: "^save/Assign_207"
  input: "^save/Assign_208"
  input: "^save/Assign_209"
  input: "^save/Assign_210"
  input: "^save/Assign_211"
  input: "^save/Assign_212"
  input: "^save/Assign_213"
  input: "^save/Assign_214"
  input: "^save/Assign_215"
  input: "^save/Assign_216"
  input: "^save/Assign_217"
  input: "^save/Assign_218"
  input: "^save/Assign_219"
  input: "^save/Assign_220"
}
node {
  name: "Merge/MergeSummary"
  op: "MergeSummary"
  input: "cross_entropy_1"
  input: "accuracy"
  attr {
    key: "N"
    value {
      i: 2
    }
  }
}
node {
  name: "init"
  op: "NoOp"
  input: "^MobileNet/conv_1/weights/Assign"
  input: "^MobileNet/conv_1/biases/Assign"
  input: "^MobileNet/conv_1/batch_norm/beta/Assign"
  input: "^MobileNet/conv_1/batch_norm/moving_mean/Assign"
  input: "^MobileNet/conv_1/batch_norm/moving_variance/Assign"
  input: "^MobileNet/conv_ds_2/depthwise_conv/depthwise_weights/Assign"
  input: "^MobileNet/conv_ds_2/depthwise_conv/biases/Assign"
  input: "^MobileNet/conv_ds_2/dw_batch_norm/beta/Assign"
  input: "^MobileNet/conv_ds_2/dw_batch_norm/moving_mean/Assign"
  input: "^MobileNet/conv_ds_2/dw_batch_norm/moving_variance/Assign"
  input: "^MobileNet/conv_ds_2/pointwise_conv/weights/Assign"
  input: "^MobileNet/conv_ds_2/pointwise_conv/biases/Assign"
  input: "^MobileNet/conv_ds_2/pw_batch_norm/beta/Assign"
  input: "^MobileNet/conv_ds_2/pw_batch_norm/moving_mean/Assign"
  input: "^MobileNet/conv_ds_2/pw_batch_norm/moving_variance/Assign"
  input: "^MobileNet/conv_ds_3/depthwise_conv/depthwise_weights/Assign"
  input: "^MobileNet/conv_ds_3/depthwise_conv/biases/Assign"
  input: "^MobileNet/conv_ds_3/dw_batch_norm/beta/Assign"
  input: "^MobileNet/conv_ds_3/dw_batch_norm/moving_mean/Assign"
  input: "^MobileNet/conv_ds_3/dw_batch_norm/moving_variance/Assign"
  input: "^MobileNet/conv_ds_3/pointwise_conv/weights/Assign"
  input: "^MobileNet/conv_ds_3/pointwise_conv/biases/Assign"
  input: "^MobileNet/conv_ds_3/pw_batch_norm/beta/Assign"
  input: "^MobileNet/conv_ds_3/pw_batch_norm/moving_mean/Assign"
  input: "^MobileNet/conv_ds_3/pw_batch_norm/moving_variance/Assign"
  input: "^MobileNet/conv_ds_4/depthwise_conv/depthwise_weights/Assign"
  input: "^MobileNet/conv_ds_4/depthwise_conv/biases/Assign"
  input: "^MobileNet/conv_ds_4/dw_batch_norm/beta/Assign"
  input: "^MobileNet/conv_ds_4/dw_batch_norm/moving_mean/Assign"
  input: "^MobileNet/conv_ds_4/dw_batch_norm/moving_variance/Assign"
  input: "^MobileNet/conv_ds_4/pointwise_conv/weights/Assign"
  input: "^MobileNet/conv_ds_4/pointwise_conv/biases/Assign"
  input: "^MobileNet/conv_ds_4/pw_batch_norm/beta/Assign"
  input: "^MobileNet/conv_ds_4/pw_batch_norm/moving_mean/Assign"
  input: "^MobileNet/conv_ds_4/pw_batch_norm/moving_variance/Assign"
  input: "^MobileNet/conv_ds_5/depthwise_conv/depthwise_weights/Assign"
  input: "^MobileNet/conv_ds_5/depthwise_conv/biases/Assign"
  input: "^MobileNet/conv_ds_5/dw_batch_norm/beta/Assign"
  input: "^MobileNet/conv_ds_5/dw_batch_norm/moving_mean/Assign"
  input: "^MobileNet/conv_ds_5/dw_batch_norm/moving_variance/Assign"
  input: "^MobileNet/conv_ds_5/pointwise_conv/weights/Assign"
  input: "^MobileNet/conv_ds_5/pointwise_conv/biases/Assign"
  input: "^MobileNet/conv_ds_5/pw_batch_norm/beta/Assign"
  input: "^MobileNet/conv_ds_5/pw_batch_norm/moving_mean/Assign"
  input: "^MobileNet/conv_ds_5/pw_batch_norm/moving_variance/Assign"
  input: "^MobileNet/conv_ds_6/depthwise_conv/depthwise_weights/Assign"
  input: "^MobileNet/conv_ds_6/depthwise_conv/biases/Assign"
  input: "^MobileNet/conv_ds_6/dw_batch_norm/beta/Assign"
  input: "^MobileNet/conv_ds_6/dw_batch_norm/moving_mean/Assign"
  input: "^MobileNet/conv_ds_6/dw_batch_norm/moving_variance/Assign"
  input: "^MobileNet/conv_ds_6/pointwise_conv/weights/Assign"
  input: "^MobileNet/conv_ds_6/pointwise_conv/biases/Assign"
  input: "^MobileNet/conv_ds_6/pw_batch_norm/beta/Assign"
  input: "^MobileNet/conv_ds_6/pw_batch_norm/moving_mean/Assign"
  input: "^MobileNet/conv_ds_6/pw_batch_norm/moving_variance/Assign"
  input: "^MobileNet/conv_ds_7/depthwise_conv/depthwise_weights/Assign"
  input: "^MobileNet/conv_ds_7/depthwise_conv/biases/Assign"
  input: "^MobileNet/conv_ds_7/dw_batch_norm/beta/Assign"
  input: "^MobileNet/conv_ds_7/dw_batch_norm/moving_mean/Assign"
  input: "^MobileNet/conv_ds_7/dw_batch_norm/moving_variance/Assign"
  input: "^MobileNet/conv_ds_7/pointwise_conv/weights/Assign"
  input: "^MobileNet/conv_ds_7/pointwise_conv/biases/Assign"
  input: "^MobileNet/conv_ds_7/pw_batch_norm/beta/Assign"
  input: "^MobileNet/conv_ds_7/pw_batch_norm/moving_mean/Assign"
  input: "^MobileNet/conv_ds_7/pw_batch_norm/moving_variance/Assign"
  input: "^MobileNet/conv_ds_8/depthwise_conv/depthwise_weights/Assign"
  input: "^MobileNet/conv_ds_8/depthwise_conv/biases/Assign"
  input: "^MobileNet/conv_ds_8/dw_batch_norm/beta/Assign"
  input: "^MobileNet/conv_ds_8/dw_batch_norm/moving_mean/Assign"
  input: "^MobileNet/conv_ds_8/dw_batch_norm/moving_variance/Assign"
  input: "^MobileNet/conv_ds_8/pointwise_conv/weights/Assign"
  input: "^MobileNet/conv_ds_8/pointwise_conv/biases/Assign"
  input: "^MobileNet/conv_ds_8/pw_batch_norm/beta/Assign"
  input: "^MobileNet/conv_ds_8/pw_batch_norm/moving_mean/Assign"
  input: "^MobileNet/conv_ds_8/pw_batch_norm/moving_variance/Assign"
  input: "^MobileNet/conv_ds_9/depthwise_conv/depthwise_weights/Assign"
  input: "^MobileNet/conv_ds_9/depthwise_conv/biases/Assign"
  input: "^MobileNet/conv_ds_9/dw_batch_norm/beta/Assign"
  input: "^MobileNet/conv_ds_9/dw_batch_norm/moving_mean/Assign"
  input: "^MobileNet/conv_ds_9/dw_batch_norm/moving_variance/Assign"
  input: "^MobileNet/conv_ds_9/pointwise_conv/weights/Assign"
  input: "^MobileNet/conv_ds_9/pointwise_conv/biases/Assign"
  input: "^MobileNet/conv_ds_9/pw_batch_norm/beta/Assign"
  input: "^MobileNet/conv_ds_9/pw_batch_norm/moving_mean/Assign"
  input: "^MobileNet/conv_ds_9/pw_batch_norm/moving_variance/Assign"
  input: "^MobileNet/conv_ds_10/depthwise_conv/depthwise_weights/Assign"
  input: "^MobileNet/conv_ds_10/depthwise_conv/biases/Assign"
  input: "^MobileNet/conv_ds_10/dw_batch_norm/beta/Assign"
  input: "^MobileNet/conv_ds_10/dw_batch_norm/moving_mean/Assign"
  input: "^MobileNet/conv_ds_10/dw_batch_norm/moving_variance/Assign"
  input: "^MobileNet/conv_ds_10/pointwise_conv/weights/Assign"
  input: "^MobileNet/conv_ds_10/pointwise_conv/biases/Assign"
  input: "^MobileNet/conv_ds_10/pw_batch_norm/beta/Assign"
  input: "^MobileNet/conv_ds_10/pw_batch_norm/moving_mean/Assign"
  input: "^MobileNet/conv_ds_10/pw_batch_norm/moving_variance/Assign"
  input: "^MobileNet/conv_ds_11/depthwise_conv/depthwise_weights/Assign"
  input: "^MobileNet/conv_ds_11/depthwise_conv/biases/Assign"
  input: "^MobileNet/conv_ds_11/dw_batch_norm/beta/Assign"
  input: "^MobileNet/conv_ds_11/dw_batch_norm/moving_mean/Assign"
  input: "^MobileNet/conv_ds_11/dw_batch_norm/moving_variance/Assign"
  input: "^MobileNet/conv_ds_11/pointwise_conv/weights/Assign"
  input: "^MobileNet/conv_ds_11/pointwise_conv/biases/Assign"
  input: "^MobileNet/conv_ds_11/pw_batch_norm/beta/Assign"
  input: "^MobileNet/conv_ds_11/pw_batch_norm/moving_mean/Assign"
  input: "^MobileNet/conv_ds_11/pw_batch_norm/moving_variance/Assign"
  input: "^MobileNet/conv_ds_12/depthwise_conv/depthwise_weights/Assign"
  input: "^MobileNet/conv_ds_12/depthwise_conv/biases/Assign"
  input: "^MobileNet/conv_ds_12/dw_batch_norm/beta/Assign"
  input: "^MobileNet/conv_ds_12/dw_batch_norm/moving_mean/Assign"
  input: "^MobileNet/conv_ds_12/dw_batch_norm/moving_variance/Assign"
  input: "^MobileNet/conv_ds_12/pointwise_conv/weights/Assign"
  input: "^MobileNet/conv_ds_12/pointwise_conv/biases/Assign"
  input: "^MobileNet/conv_ds_12/pw_batch_norm/beta/Assign"
  input: "^MobileNet/conv_ds_12/pw_batch_norm/moving_mean/Assign"
  input: "^MobileNet/conv_ds_12/pw_batch_norm/moving_variance/Assign"
  input: "^MobileNet/conv_ds_13/depthwise_conv/depthwise_weights/Assign"
  input: "^MobileNet/conv_ds_13/depthwise_conv/biases/Assign"
  input: "^MobileNet/conv_ds_13/dw_batch_norm/beta/Assign"
  input: "^MobileNet/conv_ds_13/dw_batch_norm/moving_mean/Assign"
  input: "^MobileNet/conv_ds_13/dw_batch_norm/moving_variance/Assign"
  input: "^MobileNet/conv_ds_13/pointwise_conv/weights/Assign"
  input: "^MobileNet/conv_ds_13/pointwise_conv/biases/Assign"
  input: "^MobileNet/conv_ds_13/pw_batch_norm/beta/Assign"
  input: "^MobileNet/conv_ds_13/pw_batch_norm/moving_mean/Assign"
  input: "^MobileNet/conv_ds_13/pw_batch_norm/moving_variance/Assign"
  input: "^MobileNet/conv_ds_14/depthwise_conv/depthwise_weights/Assign"
  input: "^MobileNet/conv_ds_14/depthwise_conv/biases/Assign"
  input: "^MobileNet/conv_ds_14/dw_batch_norm/beta/Assign"
  input: "^MobileNet/conv_ds_14/dw_batch_norm/moving_mean/Assign"
  input: "^MobileNet/conv_ds_14/dw_batch_norm/moving_variance/Assign"
  input: "^MobileNet/conv_ds_14/pointwise_conv/weights/Assign"
  input: "^MobileNet/conv_ds_14/pointwise_conv/biases/Assign"
  input: "^MobileNet/conv_ds_14/pw_batch_norm/beta/Assign"
  input: "^MobileNet/conv_ds_14/pw_batch_norm/moving_mean/Assign"
  input: "^MobileNet/conv_ds_14/pw_batch_norm/moving_variance/Assign"
  input: "^MobileNet/fc_16/weights/Assign"
  input: "^MobileNet/fc_16/biases/Assign"
  input: "^MobileNet/conv_1/weights/Momentum/Assign"
  input: "^MobileNet/conv_1/biases/Momentum/Assign"
  input: "^MobileNet/conv_1/batch_norm/beta/Momentum/Assign"
  input: "^MobileNet/conv_ds_2/depthwise_conv/depthwise_weights/Momentum/Assign"
  input: "^MobileNet/conv_ds_2/depthwise_conv/biases/Momentum/Assign"
  input: "^MobileNet/conv_ds_2/dw_batch_norm/beta/Momentum/Assign"
  input: "^MobileNet/conv_ds_2/pointwise_conv/weights/Momentum/Assign"
  input: "^MobileNet/conv_ds_2/pointwise_conv/biases/Momentum/Assign"
  input: "^MobileNet/conv_ds_2/pw_batch_norm/beta/Momentum/Assign"
  input: "^MobileNet/conv_ds_3/depthwise_conv/depthwise_weights/Momentum/Assign"
  input: "^MobileNet/conv_ds_3/depthwise_conv/biases/Momentum/Assign"
  input: "^MobileNet/conv_ds_3/dw_batch_norm/beta/Momentum/Assign"
  input: "^MobileNet/conv_ds_3/pointwise_conv/weights/Momentum/Assign"
  input: "^MobileNet/conv_ds_3/pointwise_conv/biases/Momentum/Assign"
  input: "^MobileNet/conv_ds_3/pw_batch_norm/beta/Momentum/Assign"
  input: "^MobileNet/conv_ds_4/depthwise_conv/depthwise_weights/Momentum/Assign"
  input: "^MobileNet/conv_ds_4/depthwise_conv/biases/Momentum/Assign"
  input: "^MobileNet/conv_ds_4/dw_batch_norm/beta/Momentum/Assign"
  input: "^MobileNet/conv_ds_4/pointwise_conv/weights/Momentum/Assign"
  input: "^MobileNet/conv_ds_4/pointwise_conv/biases/Momentum/Assign"
  input: "^MobileNet/conv_ds_4/pw_batch_norm/beta/Momentum/Assign"
  input: "^MobileNet/conv_ds_5/depthwise_conv/depthwise_weights/Momentum/Assign"
  input: "^MobileNet/conv_ds_5/depthwise_conv/biases/Momentum/Assign"
  input: "^MobileNet/conv_ds_5/dw_batch_norm/beta/Momentum/Assign"
  input: "^MobileNet/conv_ds_5/pointwise_conv/weights/Momentum/Assign"
  input: "^MobileNet/conv_ds_5/pointwise_conv/biases/Momentum/Assign"
  input: "^MobileNet/conv_ds_5/pw_batch_norm/beta/Momentum/Assign"
  input: "^MobileNet/conv_ds_6/depthwise_conv/depthwise_weights/Momentum/Assign"
  input: "^MobileNet/conv_ds_6/depthwise_conv/biases/Momentum/Assign"
  input: "^MobileNet/conv_ds_6/dw_batch_norm/beta/Momentum/Assign"
  input: "^MobileNet/conv_ds_6/pointwise_conv/weights/Momentum/Assign"
  input: "^MobileNet/conv_ds_6/pointwise_conv/biases/Momentum/Assign"
  input: "^MobileNet/conv_ds_6/pw_batch_norm/beta/Momentum/Assign"
  input: "^MobileNet/conv_ds_7/depthwise_conv/depthwise_weights/Momentum/Assign"
  input: "^MobileNet/conv_ds_7/depthwise_conv/biases/Momentum/Assign"
  input: "^MobileNet/conv_ds_7/dw_batch_norm/beta/Momentum/Assign"
  input: "^MobileNet/conv_ds_7/pointwise_conv/weights/Momentum/Assign"
  input: "^MobileNet/conv_ds_7/pointwise_conv/biases/Momentum/Assign"
  input: "^MobileNet/conv_ds_7/pw_batch_norm/beta/Momentum/Assign"
  input: "^MobileNet/conv_ds_8/depthwise_conv/depthwise_weights/Momentum/Assign"
  input: "^MobileNet/conv_ds_8/depthwise_conv/biases/Momentum/Assign"
  input: "^MobileNet/conv_ds_8/dw_batch_norm/beta/Momentum/Assign"
  input: "^MobileNet/conv_ds_8/pointwise_conv/weights/Momentum/Assign"
  input: "^MobileNet/conv_ds_8/pointwise_conv/biases/Momentum/Assign"
  input: "^MobileNet/conv_ds_8/pw_batch_norm/beta/Momentum/Assign"
  input: "^MobileNet/conv_ds_9/depthwise_conv/depthwise_weights/Momentum/Assign"
  input: "^MobileNet/conv_ds_9/depthwise_conv/biases/Momentum/Assign"
  input: "^MobileNet/conv_ds_9/dw_batch_norm/beta/Momentum/Assign"
  input: "^MobileNet/conv_ds_9/pointwise_conv/weights/Momentum/Assign"
  input: "^MobileNet/conv_ds_9/pointwise_conv/biases/Momentum/Assign"
  input: "^MobileNet/conv_ds_9/pw_batch_norm/beta/Momentum/Assign"
  input: "^MobileNet/conv_ds_10/depthwise_conv/depthwise_weights/Momentum/Assign"
  input: "^MobileNet/conv_ds_10/depthwise_conv/biases/Momentum/Assign"
  input: "^MobileNet/conv_ds_10/dw_batch_norm/beta/Momentum/Assign"
  input: "^MobileNet/conv_ds_10/pointwise_conv/weights/Momentum/Assign"
  input: "^MobileNet/conv_ds_10/pointwise_conv/biases/Momentum/Assign"
  input: "^MobileNet/conv_ds_10/pw_batch_norm/beta/Momentum/Assign"
  input: "^MobileNet/conv_ds_11/depthwise_conv/depthwise_weights/Momentum/Assign"
  input: "^MobileNet/conv_ds_11/depthwise_conv/biases/Momentum/Assign"
  input: "^MobileNet/conv_ds_11/dw_batch_norm/beta/Momentum/Assign"
  input: "^MobileNet/conv_ds_11/pointwise_conv/weights/Momentum/Assign"
  input: "^MobileNet/conv_ds_11/pointwise_conv/biases/Momentum/Assign"
  input: "^MobileNet/conv_ds_11/pw_batch_norm/beta/Momentum/Assign"
  input: "^MobileNet/conv_ds_12/depthwise_conv/depthwise_weights/Momentum/Assign"
  input: "^MobileNet/conv_ds_12/depthwise_conv/biases/Momentum/Assign"
  input: "^MobileNet/conv_ds_12/dw_batch_norm/beta/Momentum/Assign"
  input: "^MobileNet/conv_ds_12/pointwise_conv/weights/Momentum/Assign"
  input: "^MobileNet/conv_ds_12/pointwise_conv/biases/Momentum/Assign"
  input: "^MobileNet/conv_ds_12/pw_batch_norm/beta/Momentum/Assign"
  input: "^MobileNet/conv_ds_13/depthwise_conv/depthwise_weights/Momentum/Assign"
  input: "^MobileNet/conv_ds_13/depthwise_conv/biases/Momentum/Assign"
  input: "^MobileNet/conv_ds_13/dw_batch_norm/beta/Momentum/Assign"
  input: "^MobileNet/conv_ds_13/pointwise_conv/weights/Momentum/Assign"
  input: "^MobileNet/conv_ds_13/pointwise_conv/biases/Momentum/Assign"
  input: "^MobileNet/conv_ds_13/pw_batch_norm/beta/Momentum/Assign"
  input: "^MobileNet/conv_ds_14/depthwise_conv/depthwise_weights/Momentum/Assign"
  input: "^MobileNet/conv_ds_14/depthwise_conv/biases/Momentum/Assign"
  input: "^MobileNet/conv_ds_14/dw_batch_norm/beta/Momentum/Assign"
  input: "^MobileNet/conv_ds_14/pointwise_conv/weights/Momentum/Assign"
  input: "^MobileNet/conv_ds_14/pointwise_conv/biases/Momentum/Assign"
  input: "^MobileNet/conv_ds_14/pw_batch_norm/beta/Momentum/Assign"
  input: "^MobileNet/fc_16/weights/Momentum/Assign"
  input: "^MobileNet/fc_16/biases/Momentum/Assign"
  input: "^global_step/Assign"
}
versions {
  producer: 24
}
